best_model_lr_bs.pth (torch, 710608 bytes, 22 tensors)

conv1.weight f4 [32, 3, 3, 3]
00000000: bb59 833e 3c5e 1dbc 9f16 053e 66d6 403e
00000010: d7c1 603d 58de ef3d 1864 773e 635b 813a
00000020: d622 373e c773 d53d decc 14be 24e4 3ebe
00000030: e342 013d 0ec2 553c 54ec 5ebe 00aa 89bd
00000040: f7df 153e 54f6 183d 32da 72bc 867d d73c
00000050: b8f8 73be 8476 273c 2fda 553d 439b e33d
00000060: c163 1abe 64c2 fe3d 3017 ecbd ef60 633d
00000070: b9b8 59be 01f2 bc3d 007d aebd 1268 d8bd
00000080: f4ca 973e a65c 4bbe daef 883d 08f4 193d
00000090: 01e4 cabd d7f9 1f3e d832 e03d 1d3c 1b3e
000000a0: 16d5 a4bd 2cd7 af3e d07a 9abd 6fe5 693d
000000b0: e2db 623e 7ca5 3abe 02ff ebbd db53 2e3e
000000c0: a9a5 1e3e fa0b 0dbe 57cc 2e3e 1059 5dbe
000000d0: e123 223e bc71 373d 0751 973c 0e8a bc3d
000000e0: dc48 18be dbe4 3fbd 94be 783e b8c8 36be
000000f0: be2c 02be 4a0c 493e 5625 1bbd f111 2abe
00000100: a7db 2f3e f94c d83d cf9b 06be f0da 203e
00000110: 5014 303e dbdf 6fbe 584e 873e 6c9b 22be
00000120: 721c dabd 059e 0b3e 72d7 32bc 672e 29bc
00000130: 893c 5c3e 846c 4c3d 3413 bfbd f1b9 4b3e
00000140: 0a56 49be dadc c13d b5f3 093d adf4 193e
00000150: 5105 7abd c5ec 313e 2248 dcbd 63f0 123d
00000160: 0ff0 953d c684 13be b1f4 573e 1396 4e3e
00000170: 36f4 2cbe f7c4 523e 8f59 3f3e 5224 ccbd
00000180: 3850 153e 9f08 5bbe 1ab1 94be d8bb 073c
00000190: e195 60bc 690b aabd 45aa b63d 330c f8bd
000001a0: 3a93 1ebb 074d 51bc f695 1c3e 5b76 4dbe
000001b0: ac98 2fbe caa5 19be e6e1 9abc fcbf c4bd
000001c0: b11f e7bc aea8 a5bd 80ed 563e 155f 103e
000001d0: 04a2 633e 5701 e73c 47d5 603d 6f15 babd
000001e0: 62e1 4fbd b2db 80be 30d0 14be cad1 aa3d
000001f0: ee32 4c3e fdd2 2e3e 2686 8bbd 101e 12be
00000200: e5dd 493d ad87 efbd fa0f 03bd 8ffe 9abd
00000210: bb12 103e 9906 433e ceb6 783d cb20 e33d
00000220: cec7 3abe 2c63 3e3d 1761 883e 06d8 203c
00000230: 2a6f 913e 0fe1 413d b843 dd3d dc6b 233e
00000240: 50c9 2f3e f9fc 8a3d e5f3 9cbd 28ae 2c3e
00000250: e0f8 8f3d c91a dfbd d883 523e a5d9 843c
00000260: 6858 81be ce58 b6bc 31fd d63d 7d57 5dbd
00000270: 36f3 673e df8b 19be 5e31 373d 4bd5 4abd
00000280: 4108 2abe d7d0 01be cb23 413e f58d 0f3d
00000290: e733 903d ee94 23be 6c01 293e 55e7 89bd
000002a0: 5955 ecbd 1635 54be 9dd1 b23d 0457 d53d
000002b0: 9872 043e c48c 3b3e 9849 1e3d 3efc e7bd
000002c0: 3814 963d 52d1 83be 6a56 5ebe dde0 853d
000002d0: 1e25 35bd 7039 8a3e b004 5d3e 930e 16bd
000002e0: f470 0abe 5130 833d 4cbe b5bb 031b 50be
000002f0: af6b fdbd 12c6 c8bd 3d8f 8e3d f860 16be
00000300: 06f1 a53c cad7 13bd ea26 5ebb 6af2 eb3d
00000310: 6e05 0ebe f2e0 55be e814 093e 38b2 853e
00000320: 46f0 a1bd b8a2 2e3e 72c9 043e 092a 0bbe
00000330: d9e2 083e 9ae7 813e a2ac 393e c2f7 76be
00000340: ef6b c23d e360 46be fe54 3cbe 6e88 e93d
00000350: 212f 5a3c 2232 81bd 2000 e43d 424d db3d
00000360: c5a6 34be e9cc 1a3e a2c9 0d3c f994 763d
00000370: 7e27 503e f9df 6e3e 24be 63be e5c4 66bb
00000380: 7947 df3c f149 38be 19ee 2c3e 2158 e1bd
00000390: 23c3 043d d9b2 8d3d 3884 f6bd 0989 5fbd
000003a0: 04db f1bd 7dc5 c1bd 70fb 27bd db5b 0c3e
000003b0: 8f3e c8bd a334 1a3e d26d 0abe 4566 46bb
000003c0: 47e9 09bc ad76 2f3e a832 ed3d 340f 1cbd
000003d0: ca19 1dbe f15f 9f3e 716e 803d ff4e 3fbe
000003e0: 465b 0d3e 7620 60bd 6353 3bbe 04ea 18be
000003f0: 84e2 05bd 07be 05be 5cc0 033e 46e4 79bd
0.25654396 -0.009604987 0.1299691 0.18831787 0.05487236 0.117123306 0.24159276 0.0009869154
0.17884383 0.104224734 -0.14531276 -0.18641716 0.03155793 0.0130467545 -0.2176984 -0.06721878
0.14636217 0.03734429 -0.01482253 0.026304971 -0.23825347 0.010221127 0.05221003 0.11113598
-0.15077116 0.12439421 -0.1152786 0.055512365 -0.21261872 0.09225846 -0.085199356 -0.10566725
0.29647028 -0.19859561 0.06686373 0.037586242 -0.099067695 0.1562265 0.10947198 0.1515965
-0.080484554 0.3434385 -0.07542956 0.05710357 0.22154191 -0.1822719 -0.11523248 0.17024176
0.15492882 -0.137741 0.17070137 -0.21616006 0.15833999 0.0447862 0.018471254 0.09206019
-0.14871544 -0.046849113 0.2429145 -0.17850006 -0.1271238 0.19633594 -0.037877403 -0.16608407
0.17173634 0.10561556 -0.13145374 0.15708518 0.17195249 -0.23425238 0.2642696 -0.15879601
-0.10649957 0.13634498 -0.010915624 -0.010326005 0.21507467 0.049908176 -0.093298346 0.1989515
-0.19661728 0.09465952 0.033679683 0.15034743 -0.061040226 0.17375477 -0.10755946 0.035873782
0.07321178 -0.14406118 0.21089436 0.20174436 -0.16890034 0.20582949 0.18686508 -0.09967865
0.14581382 -0.21390007 -0.29041368 0.0082845315 -0.013707609 -0.083029576 0.08919195 -0.12111702
-0.002419664 -0.012774712 0.1529158 -0.2006468 -0.17148083 -0.1500465 -0.018906545 -0.096069306
-0.028213354 -0.08088814 0.20989037 0.14098771 0.22229773 0.028198881 0.054890897 -0.090861194
-0.05075205 -0.25167614 -0.14532542 0.08340795 0.19941303 0.17072673 -0.06812696 -0.1426928
0.04928388 -0.116958 -0.03199766 -0.075680844 0.14069645 0.19045486 0.06072121 0.11090239
-0.18240282 0.046481296 0.26636574 0.009817129 0.28405124 0.047333773 0.10803932 0.15959114
0.17166638 0.06786532 -0.07663707 0.1686331 0.07029891 -0.10893781 0.20558107 0.016217062
-0.2526276 -0.022259142 0.10497511 -0.054038513 0.22651371 -0.14994763 0.044724815 -0.04951982
-0.16604711 -0.12677322 0.1886131 0.03504749 0.070411496 -0.15974781 0.16504449 -0.06733576
-0.11539716 -0.20723376 0.08731387 0.104169875 0.12934339 0.18315417 0.038644403 -0.11327408
0.07328075 -0.25745636 -0.21712652 0.0653703 -0.04422485 0.26996946 0.2158382 -0.036634993
-0.1351965 0.064057 -0.005546367 -0.20322804 -0.12374055 -0.09803404 0.06960914 -0.14685428
0.02025653 -0.036094464 -0.0033897706 0.11520846 -0.13869259 -0.20886591 0.13386881 0.26112533
-0.07907157 0.1705426 0.1296747 -0.13590254 0.13367786 0.2537201 0.1813226 -0.2411795
0.09493243 -0.19372897 -0.18391797 0.11402975 0.0133169005 -0.0630839 0.11132836 0.10708095
-0.17641743 0.1511723 0.00865403 0.060200665 0.20327565 0.23327626 -0.22240502 -0.0035212573
0.02725576 -0.17996956 0.16887702 -0.110031374 0.03241266 0.06918878 -0.120369375 -0.054574046
-0.11809352 -0.09461496 -0.041011274 0.13706915 -0.09777557 0.15059142 -0.13518456 -0.003027336
-0.008417434 0.17135115 0.115819275 -0.038100436 -0.15341869 0.31127885 0.06271065 -0.18682478
0.1380435 -0.054718457 -0.18293528 -0.1493302 -0.032686725 -0.13060771 0.12866348 -0.061008714

conv1.bias f4 [32]
00000000: df30 2abd 4083 713d 00e1 eabd 5861 6cbc
00000010: b677 95be 6236 91bc f847 edbd b065 89bd
00000020: ddae 24bc fd83 22bd 0813 34be a0b1 a5bd
00000030: cb03 a23c a10a 3f3e 022a e6bd 1dce 993d
00000040: 5539 67bd abb0 0b3e 6009 c53d 0565 913d
00000050: 55a1 563b de6d ea3d e28e 423d f40b 473d
00000060: 731e d7bd f928 bdbc 7104 b0bd 0cc3 1e3e
00000070: 066a 29be 2536 b2bd 95b0 8a3d 8bae ba3d
-0.041550513 0.05896306 -0.114686966 -0.014427505 -0.29192895 -0.017726127 -0.115859926 -0.067088485
-0.010051456 -0.039676655 -0.17585385 -0.0809052 0.0197772 0.18656398 -0.11238481 0.07510016
-0.05645116 0.13641612 0.09620929 0.07099346 0.003274997 0.11446737 0.047499545 0.048595384
-0.105038546 -0.023090826 -0.08594597 0.15504092 -0.16544351 -0.087017335 0.067719616 0.09115323

bn1.weight f4 [32]
00000000: b7cd 473f e100 5c3f d0a5 5f3f 3e3d 763f
00000010: ee4e 923f f100 3f3f 356b ac3f 9944 6f3f
00000020: 8352 803f 48c7 803f 07a0 8f3f 5c46 a23f
00000030: b0db 4a3f 2c7a 433f 2cf4 3f3f 39ec 673f
00000040: 484a 563f e66b 493f ac6d 813f 4dfa 883f
00000050: 3ea0 9f3f 8525 573f e054 733f 6800 493f
00000060: 98c4 5a3f 93a4 9d3f 56ed 613f 858a 4c3f
00000070: 91e1 403f 8f66 5b3f 1041 853f ce08 833f
0.7804827 0.8593884 0.87362385 0.961872 1.1430337 0.7461081 1.3470217 0.93464047
1.002518 1.0060816 1.1220711 1.2677722 0.79241467 0.76358294 0.7498195 0.9059482
0.83707094 0.78680265 1.0111594 1.0701386 1.2470777 0.84041625 0.95051384 0.78516245
0.8545623 1.2315849 0.8825277 0.79898864 0.7534419 0.85703367 1.041048 1.0237062

bn1.bias f4 [32]
00000000: fbbf cdbe ddb1 76be b820 70be 6605 a2bd
00000010: 5a22 0abe 2699 86be 6a1d b8bd 8928 2fbe
00000020: 22ba c8bd f619 c3be a02d 733e a0d7 95bd
00000030: 4d27 d2bd 89b7 afbe 74bb 02bf 7edd b53d
00000040: fe90 e7be 5648 a5be b4c7 0f3e 2f18 fbbc
00000050: dc55 bebd e03a 45be d0a4 77be 17fb 54be
00000060: 8a7f 4abe b06b 4b3d d5c7 0dbe 4ffd b3be
00000070: 8df1 98be e87d a2be 3766 1d3f 831b 2cbe
-0.40185532 -0.24091287 -0.23449981 -0.07911186 -0.13489667 -0.26288718 -0.08989985 -0.17105307
-0.09801127 -0.38105744 0.23747873 -0.07316518 -0.10261402 -0.34319714 -0.5106728 0.08880137
-0.45227808 -0.3228175 0.14041024 -0.03065118 -0.0929372 -0.1926074 -0.24183965 -0.20798908
-0.19775215 0.049663246 -0.13845761 -0.35154197 -0.2987179 -0.31736684 0.6148409 -0.1680737

bn1.running_mean f4 [32]
00000000: a1f5 503f 80f0 873f fa57 c43e ab72 5b3e
00000010: e105 70be 824d 893f 7c10 b2bd cd19 c93e
00000020: 458b 463e 8d50 e0b8 8e37 05be 80bf 8bbd
00000030: 9aa5 14be 4cf6 c4bf 0f49 edbf 2903 173c
00000040: 51a9 13be 55b0 1740 c192 653e 0efe 4a3e
00000050: 5e9f 40bd 7dc0 303e 4283 b63e eb0a 0340
00000060: 845d fc3e 46aa db3d 2efa aa3e 7190 543e
00000070: e7b6 e2be c4fd 91be 91bd 103e b93b c03c
0.816248 1.062027 0.3834837 0.21430461 -0.23439743 1.0726779 -0.086945504 0.39277497
0.19389065 -0.00010696156 -0.13009474 -0.06823635 -0.14516297 -1.5387664 -1.8537921 0.009217062
-0.14420058 2.3701375 0.22419263 0.19823477 -0.047026984 0.17260928 0.35647017 2.0475414
0.49290097 0.107258365 0.33393997 0.20758225 -0.44280168 -0.2851392 0.14134814 0.023465978

bn1.running_var f4 [32]
00000000: 15f6 933f 92ad b33f 74ae c23e 0291 823e
00000010: b3aa 663e dd6d cc3f ae52 8f3e 1cef e13e
00000020: a1b1 a83d 6c3a 243d d211 833d 75e9 3b3e
00000030: 3222 1e3e fab0 5140 c801 7440 f56b 513e
00000040: cab3 3a3e 6b63 c040 6962 563e 9d81 d73d
00000050: c5bf 813e d4f0 493d e315 9c3e 7fbb 9040
00000060: 906f 5f3f e569 633e 5967 133f 62b3 a83e
00000070: d4c4 8d3e 6dc4 783e 3ffb ef3d 2a7b 763e
1.1559473 1.4037344 0.38023722 0.25501257 0.22526054 1.5971028 0.27992767 0.44127738
0.08237005 0.040094778 0.06399883 0.18350776 0.15442732 3.2764268 3.8126087 0.20451339
0.18232647 6.012136 0.20935978 0.10522769 0.2534162 0.049301937 0.30485448 4.5228877
0.87279606 0.22208364 0.5757957 0.32949358 0.2768923 0.2429368 0.11717843 0.24070421

conv2.weight f4 [64, 32, 3, 3]
00000000: 25b9 acbd 447e 99bc e8dd c1bd 291d fdbc
00000010: ef76 043d f40b babd 2fbc bcbd 8b2b bdbb
00000020: 5624 b43a 2ba5 c33d 17de 603d ce7e ae3c
00000030: 95f0 7fbc 81a2 7abd 9c74 80bd c333 babd
00000040: 14fe 053c 4d89 b5bd 084e 173e f055 873d
00000050: 8941 dc3c 87b6 8c3d 171c 983b 725d d4bc
00000060: 95ad d6bd 96ca c63c d776 0cbe 0620 a03d
00000070: 7424 d03d 44af 86bc 973d d13d b1e3 903c
00000080: cba6 553d b331 593d e3cf db3c 6f64 f03d
00000090: 3b4c 45bd 79dd 98bc 6269 1ebc 4dbe 56be
000000a0: 8d90 f9bd 6d0b ecbd c277 36be c100 f5bd
000000b0: cca3 57be f488 793c dcf5 613d ca15 03bc
000000c0: e354 e33d 758f 053d 3883 7b3d 92d3 39bd
000000d0: cfcc 4cbc 1e27 dabc c77d 0c3e 6967 663e
000000e0: b2d7 fa3d a59a a13d 817e 263e 6db8 d93d
000000f0: b74e ae3c 81a3 fbbd 1fa6 323b 36df 013c
00000100: 84cd 973d 9a2b 4cbd abad e4bd ca82 14bd
00000110: 004f b3bd 5f16 4abd e1a2 693b 9af4 1bbc
00000120: 877b bfbc d9a1 f9bb ca2b 13bc 502a cdbc
00000130: 0abb 36be 05d1 96be b392 e23a 93bc 42bd
00000140: 4095 0bbe 7a84 47bc 2f62 12be 2f38 13bd
00000150: 2bd7 e83d f8d1 36bd dee0 0abd 28b1 093d
00000160: 159b 84bd 6f3e 33bd a7f9 913c 34b6 903d
00000170: ea22 b83c 0881 8bbd 3eda 8cbc 6652 8fbd
00000180: 6a82 28bd 5c3f 00bd 2032 23be f277 bbbc
00000190: eec0 7c3d c9a4 423d fd02 cfbb 9fae 893c
000001a0: 28f9 0fbb 3bf5 4f3d 7413 8fbc 7712 55bb
000001b0: 31d1 0bbd d439 693b f887 133e 4dfa e93c
000001c0: 032f 8b3d 14df d03c 2754 8cbd 08ae f0bb
000001d0: e319 22be 3a0c 573d 84e7 493d b077 7a3d
000001e0: e563 9cbd b58c cd3b c28f debc 1996 9dbd
000001f0: 0e1a 6cbd dbb8 92bc bf0f 63bd 7a27 64bd
00000200: 2d58 2abd 8be5 813c 2771 013c ad52 7b3c
00000210: 7aff e63b 228c e93c ee59 953d c3b4 a9bd
00000220: 6401 4abe 1e80 4abe 79e8 f8bc 18df 363d
00000230: 80b1 89bc 7ae0 833d 953c ad3d e9fc 113e
00000240: a4e3 58bd 851c e33c 68e1 e8bc c0a3 313d
00000250: 403f 743b 082b 643d 89c7 8bbd b84d f63b
00000260: 6556 e23c c653 f13d a3f4 163d 7c89 93bd
00000270: ddf0 e4bb adfd 963d ba5d 91bd ef45 55bd
00000280: 6d3b 923b 43d5 cbbd 9b97 893d 5241 6e3e
00000290: aeea c63d 4f55 093e 7341 c23d a3a2 e83d
000002a0: eb42 0cbe a644 17be fd15 52bd ece1 7f3e
000002b0: e8b5 653e 03df 463e 1fd1 673b e3b3 583b
000002c0: d203 5ebc 85c8 0cbe e905 37be c013 11be
000002d0: 90b6 4abd 22ff 16bd 1e33 71bc f8ea c1bc
000002e0: faef 25bd b834 62bd 50e7 50bc d03b e7bd
000002f0: 80f7 70bd dd6e 34bc 0fd6 f33c f7c8 313d
00000300: 40cc f7bb 0d6a 83bb 7a55 533d 7d66 a9bd
00000310: c602 b3bd dac4 86bd 049d 0cbe 3783 e6bd
00000320: 807a 10be d224 d9bd f326 0abe da59 ebbd
00000330: 898e 9fbd d231 f13c 3264 31bb e94e d53d
00000340: caa1 073e dfc8 663c 168b 8cbc 9eb2 be3d
00000350: 8cdd f83b 67b5 d33c e12e 693d 53a1 1cbd
00000360: f62a 8c3b fda7 38bd 7c63 21bd 4a26 62bc
00000370: 2c70 743d 13a2 023e 07c4 c5bc 6b08 cc3d
00000380: a03d 113e 1458 843c 37d1 243e 971a ca3d
00000390: 69c2 d3bd 945b b83d a99d 9f3d e7cc b5bd
000003a0: 90fd 1bbd f2a0 9bbd e154 1a3e a673 0d3e
000003b0: e79e d23c b04f 66bd a220 abbc 8f12 1bbe
000003c0: a699 37be 8a08 f7bd 5716 bbbd e80a fbbd
000003d0: 84a0 b5bd c94a 1dbd d137 f4bb 107d cb3c
000003e0: c3dd 8ebc 2c02 9dbd 015c bbba 2752 38bd
000003f0: 15a9 52bd a66e cdbd dcd8 96bd da90 abbd
-0.08433751 -0.018736966 -0.094661534 -0.030897694 0.032339986 -0.09084311 -0.09215581 -0.005773013
0.0013743739 0.09552988 0.0548993 0.0213007 -0.015621324 -0.061190132 -0.062722415 -0.09091904
0.008178253 -0.08864079 0.1477586 0.06608188 0.026886718 0.06870752 0.0046420204 -0.025923464
-0.10482327 0.024266522 -0.13717209 0.07818608 0.10163203 -0.016440995 0.102168255 0.017686697
0.05216102 0.053025912 0.026832527 0.11737906 -0.048168402 -0.018660294 -0.00966868 -0.20971031
-0.12185774 -0.11525617 -0.17819121 -0.119630344 -0.21058577 0.015230406 0.05516611 -0.0080008
0.11100175 0.032607514 0.061404437 -0.045367785 -0.012500002 -0.02662998 0.13719855 0.22500385
0.12248172 0.07890824 0.16259195 0.106308796 0.021277769 -0.12287045 0.002725966 0.007926753
0.07412246 -0.04984627 -0.11165937 -0.036257543 -0.087553024 -0.04933774 0.0035650062 -0.009518767
-0.023374332 -0.0076181707 -0.008982608 -0.02504459 -0.17844787 -0.29456344 0.0017286151 -0.04754312
-0.13631153 -0.012177581 -0.14295267 -0.035942253 0.11369165 -0.044633836 -0.033905856 0.033616215
-0.06474892 -0.043760713 0.017819239 0.070660025 0.022477586 -0.0681172 -0.01719391 -0.06998138
-0.041139998 -0.031310424 -0.1593709 -0.022884343 0.06170743 0.047520433 -0.006317495 0.016806899
-0.0021968577 0.05077098 -0.01746533 -0.0032512227 -0.034135047 0.0035587447 0.14407337 0.028561736
0.06796076 0.025496997 -0.06851988 -0.007344965 -0.15830187 0.052501895 0.049293056 0.0611493
-0.07636241 0.006272877 -0.027168158 -0.076946445 -0.057642035 -0.017910412 -0.05543494 -0.05570171
-0.041587997 0.015856525 0.007900513 0.015339536 0.007049498 0.028509203 0.07292543 -0.08286431
-0.19727093 -0.19775435 -0.03038429 0.044646353 -0.016808271 0.064393 0.08458821 0.14256634
-0.05295147 0.02772356 -0.028427795 0.043369055 0.0037269145 0.0557051 -0.06825168 0.007516589
0.027629087 0.11783557 0.036854398 -0.072039574 -0.006986721 0.073726036 -0.07097955 -0.052068647
0.0044626505 -0.09952786 0.067183696 0.23267105 0.0971273 0.13411449 0.0948514 0.113591455
-0.13697402 -0.14772281 -0.0512905 0.24988526 0.22432673 0.1942101 0.0035372449 0.0033066205
-0.0135507155 -0.13748367 -0.17873348 -0.1416769 -0.04949051 -0.036864407 -0.01472166 -0.023671612
-0.040512063 -0.055226058 -0.012750462 -0.11290705 -0.058829784 -0.01101276 0.029765157 0.043404546
-0.0075621903 -0.004010445 0.05159519 -0.08271501 -0.08740763 -0.06580515 -0.13731772 -0.11255496
-0.1410923 -0.10602726 -0.1349142 -0.11491747 -0.07790858 0.029442701 -0.0027067778 0.104154415
0.13245311 0.014085977 -0.017156165 0.09311412 0.00759477 0.025843335 0.056929473 -0.03823979
0.0042775823 -0.04508208 -0.039401516 -0.013803074 0.059677288 0.12757139 -0.024141325 0.09962543
0.14183664 0.01615528 0.16095434 0.09868353 -0.10339815 0.09001842 0.07793743 -0.08876973
-0.038083613 -0.07599057 0.15071441 0.13813648 0.025710536 -0.05622834 -0.020889584 -0.15143798
-0.17929706 -0.120621756 -0.0913512 -0.122579396 -0.088685066 -0.0384014 -0.007452943 0.024839908
-0.017439729 -0.0766643 -0.0014294387 -0.04500022 -0.05143078 -0.1003087 -0.073655814 -0.083772376

conv2.bias f4 [64]
00000000: bfce af3c 770c 4dbc 1e75 b83c 14c9 5abd
00000010: 7ae7 dbbd 09fa 33bd e9e9 1ebc d463 a93b
00000020: b496 fa3c 7793 97bc 9c34 59bc 510b 93bd
00000030: 3c2b c73c 2199 8f3d 4fe4 5ebd b9c5 c2bc
00000040: 3517 22bd 9641 a9bd 51f9 e8bb c13c 203d
00000050: f200 8f3a d3c6 fcb9 7fa0 86bd e157 743d
00000060: aefd e03c 76de 89bd 4abf 6ebd c1be 4ebc
00000070: fbd2 de3c 2053 61bd 262c a3ba a664 2cbd
00000080: 4f20 43bd c566 27bd e164 ab3c b86e 3ebc
00000090: ea3f 99bc 0367 90bc 6203 2bbd be74 5ebd
000000a0: faf9 36bd c813 80bb c69c 18bd de4d 973c
000000b0: 4106 70bd 39aa 1cbd fde8 2b3d 67f2 bebc
000000c0: c5e0 00bd 0836 f43c fed3 3abd 4b34 59bd
000000d0: db3f 5c3d 8216 cabc 0db0 76b8 d431 60bb
000000e0: 6a4d 3d3d 78e6 783d 112b e2bc 31a6 7c3d
000000f0: 873b 6ebd 8550 8dbd e5bb 18bd 8ded 253d
0.021460889 -0.012515179 0.022516783 -0.05341442 -0.1073751 -0.043939624 -0.009699323 0.005169371
0.030589439 -0.018502934 -0.013257172 -0.07179893 0.024312608 0.07011629 -0.05441695 -0.023775922
-0.039572913 -0.08264463 -0.007109799 0.03912044 0.0010910316 -0.0004821332 -0.06573581 0.05965412
0.027464714 -0.06731884 -0.058287896 -0.012618721 0.027200213 -0.055010915 -0.001244907 -0.042088173
-0.047638234 -0.040869493 0.020922126 -0.011623077 -0.018707234 -0.017627245 -0.041751273 -0.054310553
-0.04467199 -0.003908608 -0.037258886 0.018469747 -0.058599714 -0.038248274 0.04197024 -0.023308946
-0.031464357 0.02981092 -0.045612328 -0.053028386 0.053771835 -0.024668936 -5.881493e-05 -0.0034209387
0.046216406 0.060766667 -0.027608426 0.06168193 -0.05816224 -0.069001235 -0.037288565 0.04050975

bn2.weight f4 [64]
00000000: 380f 7a3f a0ad 883f 2071 833f e498 803f
00000010: 45e2 853f d8c5 5d3f 0c27 963f c4d0 733f
00000020: 25ce 823f 7949 983f 7ea0 763f a81e 833f
00000030: 23ac 783f 7dc5 753f 6101 633f 2628 5e3f
00000040: 8112 663f c17f 403f 79b1 723f 42f6 813f
00000050: 5837 603f 476f 683f eeaa 7a3f 8025 763f
00000060: d6f7 6a3f bed0 943f 3d02 5c3f a9d8 863f
00000070: 0eac 753f 580c 813f f3c6 893f 6dc8 883f
00000080: ce67 603f d372 903f bc83 7e3f 6cd2 6f3f
00000090: 500a 8f3f 1742 813f f22b 763f 59af 793f
000000a0: 3045 6d3f a3a9 5d3f e2f2 7f3f 2642 6a3f
000000b0: f456 883f 55e6 793f a4cc 5b3f b31c 833f
000000c0: 1829 5c3f a0c4 773f dfd6 623f 3d2b 813f
000000d0: f6a8 5d3f 839b 7d3f d6c5 703f 3e57 933f
000000e0: 97f0 873f 99b3 673f 16ec 603f 383e 8f3f
000000f0: 23c0 4f3f e216 813f 489f 593f f5fb 833f
0.9767947 1.0677986 1.0268898 1.0046659 1.0459677 0.8663001 1.1730666 0.95240426
1.021916 1.1897422 0.9633864 1.024373 0.9713766 0.9600447 0.8867398 0.8678001
0.89871985 0.75194937 0.9480205 1.0153277 0.8758445 0.90794796 0.9791707 0.9615097
0.9178442 1.1626203 0.85940915 1.053487 0.9596566 1.0081892 1.076384 1.0686165
0.87658393 1.1285042 0.9941976 0.93680453 1.1175022 1.0098294 0.96160805 0.97533184
0.92683697 0.8658697 0.99979985 0.91507185 1.0651536 0.97617084 0.8585913 1.0243133
0.86000204 0.967844 0.8860912 1.009132 0.8658594 0.9906542 0.94051874 1.1510999
1.0620297 0.9050842 0.8786024 1.1190863 0.8115255 1.0085108 0.8500867 1.0311266

bn2.bias f4 [64]
00000000: 0134 c2be 005b 3cbe 3c14 5bbe a125 a6be
00000010: e191 afbe ff61 45be 0c35 a2be eac3 a0be
00000020: 4183 dcbe 2170 9fbd 86bc 5abe ad74 e3be
00000030: 5cee 81be 3f0d abbe 2b68 37be 78d4 83be
00000040: 42a4 b9be 0694 d5be bf07 8b3d ed0f a7be
00000050: 908f 86be fee8 babe fc31 7fbe 6156 b6be
00000060: 9dda 88be d8d6 71be 17ff debe 8776 4abe
00000070: de11 9ebe bad0 92be e55c c4be 40f1 58be
00000080: d317 42be 7882 39be c64c 4ebe 4e01 adbe
00000090: 9c7e 52be ba6b 01bf 2fde e0be c1d4 3cbe
000000a0: 8838 febe df6b 92be 2ca6 62be ecd4 8abe
000000b0: ed20 7bbe c1b0 6abd 63de a3be 63b1 cebe
000000c0: c292 85be 5fa4 a7be 5606 edbe 5367 29be
000000d0: 6726 9fbe 9be6 8dbe bf6a a4be a0cb 64be
000000e0: d2b6 64be bccb b3be f162 a4be e4da 3abe
000000f0: fae6 eebe 4b28 9abe 592c 7abe d180 acbe
-0.379303 -0.18394089 -0.21394438 -0.32450584 -0.34290984 -0.19275664 -0.31681097 -0.3139947
-0.4306889 -0.07785059 -0.21360978 -0.44424954 -0.25377166 -0.33408543 -0.1791083 -0.25748038
-0.3625813 -0.41714495 0.06788587 -0.32629338 -0.26281404 -0.36505884 -0.24921411 -0.35612777
-0.2672929 -0.23617113 -0.43553993 -0.19771777 -0.30873007 -0.2867487 -0.38352123 -0.2118578
-0.189544 -0.18116176 -0.20146474 -0.33790058 -0.2055611 -0.50555 -0.43919513 -0.18440534
-0.49652505 -0.28597924 -0.22133702 -0.27115571 -0.24524279 -0.057297472 -0.32005605 -0.4036971
-0.2608853 -0.32742593 -0.46293896 -0.16543321 -0.31083986 -0.27715 -0.3211269 -0.22343302
-0.22335365 -0.35116374 -0.32106736 -0.18247563 -0.46660596 -0.30108866 -0.2443098 -0.3369203

bn2.running_mean f4 [64]
00000000: c9d2 5cbf 61ba 88bf 0e91 e4bf d058 1cc0
00000010: a75a d7bf 1609 38c0 3f3b f8bf 3ed0 1ec0
00000020: 5ffc 55bf 78bf 87c0 047a 10c0 181f 5a3f
00000030: 5d09 acbe d95b 9f3e 80cd f4bf a435 82bf
00000040: 082f f8be 906e e9bf 60a1 35c0 e57e 8ac0
00000050: 1b7c 84bf 04b1 bbbf b682 d9bf 5e41 b3bf
00000060: 95b3 23bf 30bc 84c0 b09a 0140 2719 9fbf
00000070: 004c 86bf cb85 5ebf 1731 19c0 6b80 3ec0
00000080: 277f 923f b405 56bf 8336 70bf 5bad d6bf
00000090: 78dc 36c0 f287 ba3f 5379 7abf 5df9 f4bd
000000a0: e4cc 7a40 4188 0bbd be6c 0ac0 5b6a 3dc0
000000b0: 4b2b 7dbf b063 e1bf 60e9 26bf 05d4 4bbf
000000c0: 2856 a4bd 8a08 71bf dba7 5f40 9913 d6bf
000000d0: 8ce6 94bd 42a1 a4bf 47e5 a0bf 48ef 04c0
000000e0: a785 01c0 5135 cfbf bf2c ecbd 6a27 98bf
000000f0: 9be2 aa3e d7df 22c0 d831 03c0 4879 d9bf
-0.8625913 -1.0681878 -1.7856767 -2.4429207 -1.682454 -2.8755546 -1.939308 -2.48146
-0.8358821 -4.2421227 -2.2574472 0.85203695 -0.33600894 0.31124762 -1.9125214 -1.017262
-0.48473382 -1.8236866 -2.8379745 -4.32799 -1.0350374 -1.4663396 -1.6993015 -1.4004323
-0.63945895 -4.147972 2.0250664 -1.2429551 -1.0491943 -0.869229 -2.3936212 -2.976588
1.1445054 -0.8360245 -0.9383318 -1.6771654 -2.8572063 1.4572737 -0.97841376 -0.11961625
3.9187555 -0.03406549 -2.162887 -2.9596164 -0.98894185 -1.7608547 -0.6519985 -0.7962039
-0.080242455 -0.94153655 3.49462 -1.6724731 -0.07270536 -1.2861712 -1.256997 -2.0771046
-2.0237825 -1.6188146 -0.11531972 -1.1887028 0.3337601 -2.544912 -2.0499172 -1.6990137

bn2.running_var f4 [64]
00000000: 4906 6b40 ad8c 9c40 87d3 ce40 51d2 8f41
00000010: 54eb 1a41 8b05 c940 0d3c 0341 974b d040
00000020: 3fb2 5a40 2a53 8f41 3b95 b640 194a 9c40
00000030: 3315 8140 7074 9840 27b4 0241 cdf6 0c41
00000040: b546 0540 453d 2940 6ac8 1941 9f03 d641
00000050: 54b5 4740 5601 1140 06a4 cf40 073c 9840
00000060: 3ca9 8040 2dea 7c41 78c8 4740 1791 f340
00000070: bb94 0640 a194 a840 9269 ff40 322e 1941
00000080: b512 2b40 4fc9 7f40 fbcd cd40 6228 5740
00000090: 880d 9a41 1c47 df40 66f1 9740 0592 5540
000000a0: 59d8 b840 5b8c 8240 7f19 e940 8806 f940
000000b0: 208a ec40 143b be40 f95a 9f40 2bf8 613f
000000c0: 5b3f b640 1272 3440 3d22 0c41 a060 0741
000000d0: b820 5d40 e073 5440 7b1f 4240 f37b 0e41
000000e0: 62fc ca40 b3b8 b340 fa8e ad40 8274 0e41
000000f0: 1e09 5640 f0ff dc40 9243 9240 0782 5f41
3.6722586 4.8921723 6.463321 17.977694 9.682453 6.2819266 8.202161 6.5092273
3.4171293 17.915607 5.7057166 4.884045 4.033838 4.7642136 8.1689825 8.810254
2.0824406 2.6443646 9.611429 26.751768 3.1204424 2.2657065 6.4887724 4.7573276
4.0206585 15.807172 3.1216106 7.611461 2.1028278 5.268143 7.981637 9.573778
2.6730168 3.996662 6.431394 3.3618398 19.256607 6.9774303 4.7482176 3.3370373
5.7764096 4.079633 7.2843623 7.7820473 7.391861 5.9447117 4.979855 0.882693
5.695234 2.8194623 8.758359 8.46109 3.455122 3.3195724 3.0331714 8.905261
6.3433084 5.6162963 5.423703 8.903444 3.3443065 6.9062424 4.5707483 13.969245

conv3.weight f4 [128, 64, 3, 3]
00000000: 8f96 1b3c 681a 193d bf9f 83b9 f1d9 d23d
00000010: 99d6 d43d ce91 d23d 8533 ac3d 8685 373e
00000020: 72db d03d cf92 fc3c 6d10 523d 5468 acbc
00000030: 8140 843c e6e1 a83c 3adb 553d 2c8c a43d
00000040: b198 2d3c 5e01 363d 38f6 cb3d 25fa b63d
00000050: 54ba c13c 38da e33c 59d0 5e3d 63f4 233c
00000060: 21e9 343c d6b7 773d 21ac af3c 5a03 ae3d
00000070: b235 c93d 47ca cf3d e376 56bd 5757 a6bc
00000080: 4582 6dbc c3ef 43bd 5aa3 263d 1179 523d
00000090: 0e5c be3d 851b 633d ba05 283e 3d13 e03c
000000a0: fcca c43b 46a9 103e 1002 803d a2d2 29bd
000000b0: 846b 923d d7b0 20bd 8b3b 85bd 1668 88bd
000000c0: 4ed1 a6bc f332 40bd 8379 54bd 44a5 cebd
000000d0: 34a3 07be 11c5 b0bd e85f 6b3e 6708 0abd
000000e0: 0549 02bd a699 123e efce 3c3d d757 bdbd
000000f0: db08 4d3e 1e9d 403d c32f 673d 2c02 45bc
00000100: 16cf 1abc ef85 733c 795a 7dbd 458e 1ebd
00000110: 457a 1bbd 2006 ac3d 775c 15bc ac05 c33c
00000120: 1055 88bd e246 78bd c506 b4bc 0785 3d3c
00000130: 1a48 a53c dd90 df3c 482e c83c 72b0 25bd
00000140: 83e7 eebc d561 c8bd 3fb7 03be b3f2 88bd
00000150: b84b 40be b7e1 4bbe ae64 39be b8f2 223b
00000160: 9797 95bd f826 8dbd ac2e c03d 26a7 1dbc
00000170: b21c 443d 83f5 593d a0c2 003d b3fb 5b3c
00000180: 132d 903d fdce a73d 0e67 4f3d acc0 06be
00000190: 4327 b2bd 28b8 c4bd a9b2 dcbc 2b23 2ebc
000001a0: 74e2 e8bd 31e9 57bd 5617 ffbc e63d cdbd
000001b0: 483f 313d daa4 383d 7bd6 6a3b d4ef 303d
000001c0: 1733 e6ba 5727 9d3c fc44 af3c 96a8 06bd
000001d0: f314 ce3c 6f30 c13d ef80 cf3c 1f3e 063e
000001e0: efdb ee3d cdef af3d bf96 173e 1f5b 01bd
000001f0: 4abc d0bc d99a 743d 3984 60bc c4b2 10bd
00000200: b964 a5bd ebdb 0d3b 4bde d03c 5450 e7bb
00000210: 06d4 d9bc 4aa6 57bd 1807 5bbd 2221 fabb
00000220: 4595 803d 245e 7b3c 7cf3 bbbd f05e 1b3d
00000230: 0a02 2b3c d73c a5bd bac6 b33c 84b7 2f3c
00000240: def0 473c b79b 9a3d fa61 1ebc 2b76 7bbd
00000250: af55 793b a12a b3bd 5e73 9b3c f8e8 a13d
00000260: 6859 ccbb c6d7 ff3c 59d0 963d 33b2 2dbd
00000270: c57e 81bc b0ab fa3b 8fc5 eb3b a1ed fc3b
00000280: 542f 2fbc bef3 1dbd c0ae e1bd 0e83 b43b
00000290: 9ccf 54bd 7f96 e7bc 390d b33c 4add 17bd
000002a0: 3850 a4bc b260 e2ba 1d2e e1ba bd57 a23d
000002b0: 8eed 013e 44ce 343d 4325 883c 195c 683d
000002c0: fdd9 163d 40f9 a33d 5143 363d 7bb9 a53c
000002d0: 90fe 9f3d af26 a03d d37c 073e 0953 233d
000002e0: 1547 9bbc 0781 233d 8ece da3d a3d6 303e
000002f0: bac1 2c3e 21bc 2d3a ae23 2cbd 2b5e 0a3d
00000300: 19a3 ce3b c2e5 4fbd 6a71 abbc 8a73 0abd
00000310: ddd8 8bbc 1696 a73c 02f7 2d3d 699a 81bd
00000320: 2e50 d4bc bee7 fe3d 8af2 713d 788c 613d
00000330: ff33 56bd 2d3c 7bbd a101 69bd b336 953c
00000340: b7a0 03bd f866 69bc 4cc2 473c 2a7c 403c
00000350: fd87 b4bc cc6a 523c 7a9a 9cbd dea2 93bd
00000360: 9b08 13bd 82ba 8fbc 5a3e 90b9 5574 f93c
00000370: 855d 533d cd00 a83c 0601 69bd 1299 babd
00000380: dbca cabd 1b15 063e aed3 6d3d cda6 a83a
00000390: 65b1 883d 8a52 113d 1d37 a2bc cf81 2ebc
000003a0: 3ed1 ef38 5756 06be c03e 18bd 31ce 9abc
000003b0: 71dc 443d f11e 82bc 2a13 80bb 271c 9f3d
000003c0: cd0d 79bc ccea 94bd f6cc cbbc 0322 12be
000003d0: 4dcc 64bd 934b b9bd 6a7f abbd 9df4 05be
000003e0: 74e0 1abe d9e3 f0ba 4d2e d1bc 1b61 c73c
000003f0: 6b4a cdbc 25a2 e33b 333e babc 4115 0f3c
0.009496345 0.0373787 -0.00025105287 0.10295475 0.10392494 0.10281716 0.08408264 0.17922029
0.10198106 0.030831723 0.051285196 -0.021045841 0.01614404 0.02061553 0.052211024 0.08034548
0.0105954865 0.044434898 0.09959072 0.0893443 0.023648418 0.027814016 0.054397915 0.010006997
0.01104191 0.060478054 0.021444382 0.08496733 0.09824695 0.10146003 -0.052359473 -0.020305319
-0.014496391 -0.047836076 0.040683128 0.05138499 0.09294902 0.055446167 0.16408435 0.027352924
0.006005643 0.14127073 0.062503934 -0.04146064 0.07149413 -0.039231148 -0.065054975 -0.06660478
-0.020363476 -0.04692359 -0.051873695 -0.10090116 -0.13245851 -0.086313374 0.22985804 -0.03369942
-0.031807918 0.14316425 0.046095785 -0.0924527 0.2002291 0.04702484 0.056442033 -0.012024444
-0.009448787 0.014863475 -0.06185386 -0.038709898 -0.037958402 0.08399606 -0.009116284 0.023806415
-0.066568494 -0.060614474 -0.021975884 0.011567361 0.020175982 0.027290756 0.024436131 -0.040451474
-0.029163128 -0.09784285 -0.12862872 -0.06686916 -0.18778884 -0.19910322 -0.18104813 0.002486391
-0.07304304 -0.06892198 0.09383902 -0.009622371 0.04787893 0.053212654 0.03143561 0.013426709
0.07039847 0.08193777 0.05063539 -0.13159436 -0.08698895 -0.096054375 -0.02694066 -0.010628502
-0.113713175 -0.052712623 -0.031139057 -0.10021572 0.04327324 0.04507909 0.0035833407 0.043197468
-0.0017562833 0.019183798 0.021395199 -0.03287562 0.025156474 0.09433066 0.025330035 0.13109635
0.11663043 0.0859066 0.14803599 -0.03158104 -0.025480408 0.059717987 -0.013703399 -0.035326734
-0.08075852 0.0021645974 0.025496623 -0.0070591364 -0.026590358 -0.05264882 -0.053473562 -0.0076333443
0.06278471 0.015342269 -0.091773 0.037932336 0.010437498 -0.08068245 0.021945346 0.010724906
0.012203423 0.075492315 -0.009666914 -0.06139199 0.0038045456 -0.08748365 0.01897591 0.079057634
-0.006236244 0.031230818 0.07363958 -0.042406272 -0.015807519 0.0076498613 0.0071951817 0.0077187573
-0.010692436 -0.03856253 -0.11019659 0.005508787 -0.051955804 -0.028270004 0.021856891 -0.037076272
-0.020057783 -0.0017271249 -0.001717988 0.07926891 0.12688276 0.044142023 0.01661933 0.056728456
0.036828984 0.08006525 0.04449779 0.020230046 0.07812226 0.07819878 0.1323121 0.03987411
-0.018954793 0.039917972 0.106839284 0.17269377 0.16870776 0.00066274597 -0.042026214 0.03378121
0.006306064 -0.050756223 -0.020928103 -0.033801593 -0.017071182 0.020457309 0.042471893 -0.063282795
-0.025917139 0.12446545 0.059069194 0.055065602 -0.05229568 -0.061336685 -0.05688632 0.01821456
-0.03213569 -0.014245741 0.01219232 0.011748353 -0.0220375 0.012842845 -0.076466516 -0.07208799
-0.03589688 -0.017544989 -0.00027512276 0.03045098 0.05160286 0.020508194 -0.05688574 -0.09111227
-0.09901973 0.13093989 0.0580632 0.0012867093 0.0667446 0.035479106 -0.01980167 -0.010651066
0.000114353825 -0.13118874 -0.037169218 -0.018897148 0.04806179 -0.015883895 -0.0039085345 0.077690415
-0.015201044 -0.072713464 -0.024878006 -0.14270787 -0.0558589 -0.09047618 -0.08373912 -0.13081594
-0.15124685 -0.0018378451 -0.025534773 0.024338296 -0.0250599 0.0069468194 -0.022734737 0.008733095

conv3.bias f4 [128]
00000000: 5398 46bc 1fa8 02bd 5d8c 6b3c 3bbe b83c
00000010: 5e7c 21bd 553f 0e3d 33ae e3bc 0e40 34bd
00000020: 2481 1f3d 919b 3ebc 95ea 813c f76a 673c
00000030: d7fb 083d d66a 59bc adc1 0abc 4f6a cabc
00000040: 83af 75bc 3637 9b3b be83 333c 411a 47bd
00000050: f9a0 4cbc 1e37 803c 01b8 0dbd af6f 4ebc
00000060: 2966 dbbc 21fe 82bc b3bf 843d 4234 bb3c
00000070: 5042 65bd b7a4 d3bb 13ec 043d 7a3e f6bc
00000080: 2307 6c3c e39b 05bd fcde 79bc baa6 d83b
00000090: ec54 19bc 41c3 8b3c ad07 55bb edbc 59bd
000000a0: fa8e 0b3d b995 b4bc 05e3 df3c f056 62bd
000000b0: dc83 0dbd 6b4b 36bc 3446 d5bb 5232 833b
000000c0: 33e5 0b3d af8e 5dbc c259 05bd 7df4 07bd
000000d0: ca4a efbc 5e3c c1bc a5d2 913b 4ec7 fcbc
000000e0: c734 5bbd 6ebe dfbb b726 a53b 5448 8abc
000000f0: 44b3 373d b8fd 3a3c 61bc df39 e67b 9fbc
00000100: d353 05bc ac07 c7bc aac7 6c3b 2f8f 7d3c
00000110: 9420 9ebc e380 af3c 2fbe 89bc c010 2d3c
00000120: f516 403d 5d2e d63b dea7 f6bc 57b1 b43c
00000130: c882 8bbc ebeb 58bc 5451 a3bc ab8f e9bc
00000140: 12a3 cf3c 1aa9 dabb f6dd 083c 6138 e73c
00000150: 017f 02bc a930 41bc 99b3 edbc 4310 b6bc
00000160: 0b48 d33c 8311 833c 0a60 883c 2be8 3d3b
00000170: 9bc4 c5bc dc6c 0dbd 1765 57bb 52bf 41bd
00000180: 7ce7 88bc 4eb2 1ebc acb6 933b 0c2e 533d
00000190: 5e01 71bb 4fc3 5abc 832d 383c de69 4abd
000001a0: eaa5 edbb 424c 9dbb 2440 62bd 318c 02bb
000001b0: 177b 1abd 1996 12bd dbca c53c 9e46 d93b
000001c0: 44db 833b d991 383d be22 3f3c b381 f6ba
000001d0: 16c7 10bd 0138 06bd d0ee 183d 6b3e 623c
000001e0: bdc1 1f3d d5cb 6a3c 3dc0 843a 9197 a2bc
000001f0: f713 863c 1b3f 7abb 0f97 c63c 20c6 2f3d
-0.012121278 -0.031898614 0.014376727 0.022551646 -0.039425246 0.034728367 -0.027793026 -0.0440064
0.038941517 -0.01163377 0.015858928 0.0141246235 0.0334433 -0.013270101 -0.0084690275 -0.024708895
-0.014995459 0.0047368063 0.010956703 -0.048609022 -0.012489551 0.015651282 -0.034599308 -0.01259987
-0.026782112 -0.015990319 0.06481876 0.022852067 -0.055971444 -0.0064588445 0.0324517 -0.030059088
0.014405998 -0.03261937 -0.0152509175 0.006611672 -0.009358626 0.017060878 -0.0032505796 -0.05315869
0.0340719 -0.02204405 0.027329931 -0.05525869 -0.03454958 -0.0111263795 -0.006508613 0.0040038014
0.03415413 -0.013522788 -0.032556303 -0.033192147 -0.029210467 -0.023588356 0.0044501596 -0.030856755
-0.05351713 -0.006828121 0.0050400156 -0.016880192 0.044848695 0.01141303 0.00042674228 -0.019468259
-0.008137661 -0.02429565 0.0036129751 0.015476032 -0.019302644 0.021423763 -0.01681432 0.010563076
0.046896894 0.0065362887 -0.030109342 0.022057218 -0.017030135 -0.013239841 -0.019936241 -0.028510889
0.025346313 -0.0066729905 0.008353701 0.028225126 -0.00796485 -0.011791387 -0.029016303 -0.022224551
0.025791189 0.015999561 0.016647357 0.0028977494 -0.0241416 -0.034527645 -0.003286665 -0.047301598
-0.016711943 -0.009686066 0.00450786 0.051557586 -0.0036774497 -0.013352229 0.01124132 -0.04941737
-0.0072524445 -0.0048003504 -0.05523695 -0.0019919986 -0.037715044 -0.035787676 0.02414458 0.0066307327
0.0040239412 0.045060966 0.011665998 -0.0018806964 -0.035346113 -0.032768253 0.037337124 0.013808827
0.039003123 0.014330824 0.0010128092 -0.019847663 0.016366942 -0.0038184586 0.024241952 0.042913556

bn3.weight f4 [128]
00000000: e776 973f 719d 9a3f 6e97 a13f 7eac 943f
00000010: 1bda 9e3f fcce a83f ac8f 9a3f f8e0 9f3f
00000020: 117e 9b3f b21a a43f f25a b33f de2a a73f
00000030: 3709 873f c114 913f 7875 963f cd79 913f
00000040: b810 913f d862 9d3f 0d80 953f 94bc a63f
00000050: 281c 8c3f ece7 a13f bfd6 9c3f 7c27 8d3f
00000060: 40e0 af3f 6c68 a13f 074d a83f 68d4 a53f
00000070: 7892 9b3f 6f15 a63f a43c 903f 5b39 a63f
00000080: c8b1 a03f 05e9 973f 5148 a13f 4d01 a33f
00000090: b20c a63f da36 a43f 88d0 a83f a2cd 973f
000000a0: 4c59 b03f 60b0 823f 39de a33f 14ad 9a3f
000000b0: efe8 9e3f f1f5 943f d110 9d3f 34f7 9e3f
000000c0: 89ff 9a3f d9b6 a43f a8b1 9f3f fe78 a33f
000000d0: 13d2 a53f 961c 9a3f d843 9e3f df13 9a3f
000000e0: 1a9e ab3f 7deb b33f 1386 a63f fdbe 963f
000000f0: c400 9f3f a330 913f 2272 973f ad67 7f3f
00000100: a1a5 a73f 062e 893f fe1e 9e3f 4e3e 973f
00000110: c11e 843f 7485 9c3f 5a9d a33f 8179 953f
00000120: 5ed3 a63f 1f8b 9f3f ab7c a53f e88d aa3f
00000130: 114b b03f 24a7 a33f 9ede 913f 2fde a63f
00000140: 422a 963f fc6b 933f b81c 8b3f 02bf 993f
00000150: 8cf5 a33f 0585 8f3f 1932 9c3f c65b a53f
00000160: 5e1e a53f 78a4 ad3f c898 993f ea36 923f
00000170: 794a 973f 3e10 9e3f 157c a23f 0b18 a03f
00000180: 90b8 963f b044 a03f a36e a73f fbc4 af3f
00000190: bf9a a93f 58e6 8d3f 1f07 983f c4d3 993f
000001a0: 7f01 9b3f 84fc a83f e4f9 963f 35b0 a33f
000001b0: efe8 943f abdd 9c3f c9fc a73f 29d9 a43f
000001c0: 280b 983f 51ff 993f 2b00 8d3f dc1f 9c3f
000001d0: 1abd a63f 3aa6 933f b0d8 9c3f 6b5a 9d3f
000001e0: b81e b73f 9d16 a43f cfaa 983f 8e13 9d3f
000001f0: 9764 943f 690c 953f d003 913f 2e1f 993f
1.1833161 1.2079297 1.2624338 1.161514 1.241031 1.3188167 1.2075095 1.249053
1.2147847 1.2820647 1.4012129 1.3059957 1.0549687 1.1334459 1.1754599 1.1365296
1.1333227 1.229579 1.1679703 1.30263 1.0946093 1.2648902 1.2253035 1.1027675
1.3740311 1.2609992 1.3148507 1.2955446 1.2154074 1.2975291 1.1268506 1.2986253
1.2554255 1.1867987 1.2600194 1.2734772 1.2972624 1.2829239 1.3188639 1.1859629
1.3777251 1.0210075 1.2802192 1.2084069 1.2414836 1.1637555 1.2270757 1.241919
1.2109233 1.2868301 1.2476091 1.2771299 1.2954735 1.2039974 1.2364454 1.2037314
1.3407624 1.405624 1.3009666 1.1777035 1.2422109 1.1342968 1.1831706 0.9976757
1.3097421 1.071717 1.2353208 1.1815889 1.0321885 1.2228227 1.2782395 1.1677705
1.3033254 1.2464331 1.2928671 1.3324556 1.3772908 1.2785382 1.1396062 1.3036555
1.1731646 1.1517329 1.0868139 1.2011416 1.280931 1.1212469 1.2202789 1.2918632
1.2899892 1.3565817 1.199975 1.1423008 1.1819602 1.2348707 1.2694117 1.2507337
1.1775074 1.2520962 1.3080639 1.3731989 1.325035 1.108592 1.1877173 1.2017751
1.2109832 1.3202062 1.179501 1.2788149 1.1633586 1.2255148 1.3124019 1.2878772
1.1878405 1.2031041 1.1015676 1.2197223 1.3026459 1.1535103 1.2253628 1.2293218
1.430625 1.2819401 1.1927127 1.2271593 1.1593198 1.1644412 1.1329288 1.196264

bn3.bias f4 [128]
00000000: 9939 61be 1983 b9be 260e 9bbe 4d09 6dbe
00000010: 19f5 5dbe a2f1 85be d88b acbe 6eb0 89be
00000020: d840 a4be 9a74 adbe 6e97 6cbe 45c7 47be
00000030: 8a2e 10be b406 75bd 3218 b5bd bff8 03be
00000040: 63b8 97be 5233 89be 49b1 8fbe 4090 a4be
00000050: 7eeb b7be c1fe 04be 4c0f 78be 4fea 05bd
00000060: 598a b1be 09ca adbe 1403 f3bd 0982 9cbe
00000070: 66b9 a4be 70df ffbd b4ad 9bbe 49f8 5abe
00000080: 49f4 93be d3bd 2cbe 540e a7be 23f9 59be
00000090: f6f2 98be 4ead 9bbe 7abf 9abe 2c56 50be
000000a0: 6b5d 75be 3856 ccbd 4177 80be eec1 87be
000000b0: 60ef a8be ece6 55be c86a 8bbe 5217 97be
000000c0: fc50 a7be e909 bfbe ced3 86be dc21 aabe
000000d0: 5b49 9cbe fe61 9fbe 56aa 7dbe 8a59 40be
000000e0: 5268 54be 5bc3 3dbe 0db0 3cbd ca7b 81be
000000f0: fcd5 98be 1d26 77be 267c 27be ade9 36be
00000100: 78e5 4cbe 8b2f bebd 42a6 92be 4159 16be
00000110: 56f0 2dbe adac 91be 42bf 2fbe 0df7 98be
00000120: 91ca 83be 2189 39be 87ba 7cbe 518c aabe
00000130: aa8b 40be 25fb 38be 58ff 4cbe aa6d 5bbd
00000140: 7e8f 69be 2929 8fbe b2a4 dcbd db69 b1be
00000150: 48ca 92be 1813 8bbe 206f 6dbe e096 6fbe
00000160: faf8 27be 0e5d 5bbe 6236 36be b823 c6be
00000170: 69b3 79be 78da 98be 2c0f a7be ccee 54be
00000180: e628 6ebe 31bd b0be b878 77be 4209 a6be
00000190: 05fc 7ebe eb2f 86be 7dbb 95be 6046 85be
000001a0: 8f0c 9fbe 39de 30be 9e9f 84be a801 2abe
000001b0: 6252 08be e9cf a2be 4722 80be 1fc4 86be
000001c0: cf72 34be 7bec 6dbe a9b1 02be 56cb 85be
000001d0: 7cef 83be 3388 3abe f5a6 7ebe 140c 63be
000001e0: e3b4 85be 9281 b5be 8a2b f5bd 4d18 9bbe
000001f0: 6c7c 4dbe f3e5 92be 4622 fabd 555b 59be
-0.21994628 -0.36232832 -0.30284232 -0.23148079 -0.21675529 -0.26160914 -0.33700442 -0.26892418
-0.32080722 -0.33878022 -0.23104641 -0.19509609 -0.14080253 -0.059820846 -0.088425055 -0.12887858
-0.29632863 -0.26796967 -0.28064945 -0.32141304 -0.35921854 -0.12987806 -0.24224585 -0.032694157
-0.34675863 -0.33943203 -0.118658215 -0.3056796 -0.32172698 -0.12493789 -0.30405962 -0.21383776
-0.28897312 -0.16869287 -0.3262812 -0.21286444 -0.29872864 -0.30405658 -0.3022421 -0.20345372
-0.23961417 -0.099773824 -0.25090984 -0.26515144 -0.3299513 -0.20888871 -0.27229905 -0.2950998
-0.32678974 -0.37312248 -0.2633347 -0.33228958 -0.30524716 -0.3112945 -0.24772009 -0.18784156
-0.2074292 -0.18531553 -0.046066333 -0.25289756 -0.29850757 -0.24135633 -0.16355953 -0.17862578
-0.2000941 -0.09286412 -0.2864247 -0.14682485 -0.16986212 -0.28452054 -0.17162803 -0.29875985
-0.25740483 -0.18118717 -0.2468053 -0.33310178 -0.18803278 -0.18064554 -0.20019281 -0.05357138
-0.22808644 -0.2796109 -0.10773601 -0.34651074 -0.28669953 -0.27163005 -0.23186922 -0.23397398
-0.16403571 -0.21422216 -0.17794183 -0.38699126 -0.24384846 -0.29854178 -0.32628763 -0.20794219
-0.23257789 -0.34519342 -0.24167144 -0.32428938 -0.24900825 -0.26208434 -0.29244605 -0.26030254
-0.3106427 -0.17272271 -0.25903028 -0.16602194 -0.13312677 -0.31799248 -0.25026152 -0.26321504
-0.17621921 -0.23234741 -0.12763084 -0.26131696 -0.2576865 -0.18216018 -0.24868377 -0.22172576
-0.26114568 -0.35450417 -0.11971195 -0.30291978 -0.20066994 -0.28691062 -0.122135684 -0.21226247

bn3.running_mean f4 [128]
00000000: b109 76bf 2f83 363f 573f 22be adb8 ddbf
00000010: 3eea 31bf c88d 93be 2165 0dbf 97f4 d0be
00000020: 3c45 9bbe 4680 00c0 f3eb babe 780b a2be
00000030: f8b4 d13f c034 083e 638d e53f 47b4 3fbf
00000040: eaa5 1dc0 6519 ebbf 1afb bcbf fe5f a7bf
00000050: bbeb a2bf 8996 c43f fb3a dfbe 509c 1bc0
00000060: 9b99 4e3f c2d4 093e 2c99 57bf e671 d9be
00000070: 88d7 2bc0 b4cf dfbf ac9a 93bf fd9f cabe
00000080: 9266 ce3f b392 27c0 45e6 9cbf 7316 d4bf
00000090: f088 3b3f 04e0 a2be 8e13 b9bc 7787 863f
000000a0: 1d71 a33f 88a3 693d 6ebc 1d3e 04d6 1fbf
000000b0: 9001 28bf 2dfd e53e 3992 a6bd 7614 c0bf
000000c0: dcf2 82bf 5f0b 69bf 5aa2 e1bf 96f8 90bf
000000d0: d344 f1bf e796 55c0 1bb4 9abf f081 85c0
000000e0: 767f 0b3e 9a16 1cbe 14e2 47c0 d065 40be
000000f0: a775 23bf f5b9 08bf 6f45 0dc0 71fd 71bf
00000100: effa 80bf 80d1 a63e 2c15 1fbf 4807 cbbf
00000110: 4c82 67bf 97c9 d4bf 8502 b3be 2b6c 21bf
00000120: 48ae 08bf 81b7 8cbf e3e4 5dbf 4110 cbbf
00000130: b4ee 88bf 11c6 28c0 0643 ec3c b451 663f
00000140: 00b8 b5be 8bb7 4abf 5ee5 753e 61d0 a6bf
00000150: f0f4 40bd 6c07 eb3d 9c1d 53bf 051a a4bf
00000160: f20e 8cbf 6402 2c40 992d e1bf ae8a 45bf
00000170: a31e 3cc0 f5d3 d33e b202 b6bf 659b 26bf
00000180: 937f e53d 3e6f 19bf 893b 203f 65fb 19c0
00000190: 8d81 8bbf 0cf3 d7bf d3b4 4dbe 003f f9be
000001a0: ebfe 733f 060e 6e3f 072d 493e 0bc7 8f3f
000001b0: 661d 86bf aede e43f 4662 16be 208a 473e
000001c0: 3a07 97be 3405 a8be b4c6 ddbd 1e9c c2bf
000001d0: 41c4 36bf 8bf0 1cc0 39f1 7f3f 086b 173f
000001e0: 3660 22bf c19b ebbf 358d 8a40 0cb2 90bf
000001f0: af43 cb3f 3a81 53be d15c 683e bd8a 09c0
-0.9610854 0.7129392 -0.15844475 -1.7321984 -0.6949805 -0.28819108 -0.55232435 -0.40811607
-0.3032626 -2.0078292 -0.3650814 -0.31649375 1.6383352 0.13301373 1.7933773 -0.74884456
-2.4632516 -1.8367125 -1.476413 -1.307617 -1.2728189 1.535844 -0.43599686 -2.4314156
0.80703133 0.13460067 -0.84218097 -0.4246971 -2.68503 -1.7485261 -1.1531577 -0.39575186
1.6125052 -2.6183288 -1.2257773 -1.6569351 0.73255825 -0.31811535 -0.022592332 1.051009
1.2768894 0.05704072 0.15403911 -0.62435937 -0.65627384 0.4491972 -0.081333585 -1.5006244
-1.0230365 -0.91032976 -1.7627671 -1.1325862 -1.8849128 -3.3373353 -1.2086214 -4.1721115
0.13622841 -0.15242997 -3.1231737 -0.18788838 -0.638514 -0.5340875 -2.207363 -0.94527346
-1.0076579 0.3258171 -0.6214168 -1.5861597 -0.9043319 -1.662402 -0.3496286 -0.63055676
-0.5339093 -1.0993501 -0.8667738 -1.5864335 -1.0697846 -2.637089 0.028840553 0.8996842
-0.35491943 -0.79186314 0.24013278 -1.3032342 -0.04710859 0.11476025 -0.82467055 -1.282044
-1.0942061 2.687646 -1.759204 -0.77164733 -2.93937 0.41372648 -1.4219573 -0.65080863
0.112059735 -0.5993537 0.62590843 -2.405969 -1.0898911 -1.6871047 -0.2008851 -0.48680878
0.9531085 0.9299015 0.19646083 1.1232618 -1.0477722 1.7880456 -0.14685926 0.19486284
-0.294977 -0.3281647 -0.10828915 -1.5203893 -0.7139321 -2.4521816 0.9997745 0.5914769
-0.63428056 -1.8406907 4.329737 -1.1304336 1.588003 -0.20654765 0.22691657 -2.149093

bn3.running_var f4 [128]
00000000: 179f 0c40 df98 f63f d018 9e3f 11a1 c93f
00000010: 4990 1840 949e 0a40 b65a ee3f 61ac 0440
00000020: cfc2 c03f 0152 cf3f 4f0a 1040 36c8 b93f
00000030: 776a 6040 8bb6 4640 ef65 fe3f d6db 0540
00000040: 5246 c53f 980a d43f abe9 fe3f bf2e e73f
00000050: aa68 c73f f40e 3f40 b7cd 1e40 c348 5540
00000060: b701 bc3f 82cb c73f d1d5 f53f 58f1 fa3f
00000070: e32f 0440 9a10 2b40 e48c de3f d3e3 b53f
00000080: 3630 d13f 00e8 e43f e3e4 b33f c903 0b40
00000090: e753 d53f a9ac 8b3f 5330 dc3f 4b71 e73f
000000a0: c8a4 0640 3a4f 9440 abe0 bf3f 655b 9b3f
000000b0: d200 b83f 6ace f13f c153 ce3f d5ae c93f
000000c0: bf6c e83f b573 de3f b793 ea3f aa88 c93f
000000d0: 64bd 0540 0db0 1940 2938 ee3f 45a7 4d40
000000e0: d38f b03f 0abb eb3f 9828 2f40 af15 de3f
000000f0: 8689 0c40 3f24 e53f 8f69 0440 8635 0440
00000100: 9ca2 d43f f26b 6a40 499f 1b40 4f4b 1640
00000110: 15bb 2e40 ec32 e33f 3dd2 d33f f6b8 d33f
00000120: 2a8c 1840 06b2 de3f 8b53 e13f 693e 1840
00000130: 7046 b93f 1465 c03f 857a 1340 86df 3a40
00000140: b4e1 0c40 d0bc c43f eb27 9340 4e57 f93f
00000150: f0de d23f 1c7a eb3f 80b1 b63f 3191 d63f
00000160: ff13 d23f f612 fd3f 52d6 1140 98c1 f43f
00000170: 2114 1d40 725d b13f 0756 fa3f 4702 b33f
00000180: 80e5 c23f c152 993f 09da ca3f 1dab f03f
00000190: 6ad3 e53f a8fb cf3f f65c ee3f 08f8 f73f
000001a0: 2bf3 f33f bc1d fe3f 71e4 eb3f ea53 0240
000001b0: 7f8b 0240 0dd8 e23f 9773 dd3f bbbb c23f
000001c0: 3345 da3f 370e ea3f 8065 2e40 40b7 2440
000001d0: 8524 2440 4250 f03f c60f f03f 6891 0540
000001e0: a29a bf3f caf8 f03f a7ed 7140 7546 af3f
000001f0: ab93 1b40 2167 d13f 0372 e03f 63fd e43f
2.19721 1.9265403 1.2351322 1.5752279 2.3838065 2.1659288 1.8621433 2.0730212
1.5059451 1.6196901 2.2506292 1.4514225 3.506498 3.1048915 1.9874858 2.0915427
1.5412085 1.6565733 1.991506 1.8061141 1.5578816 2.9852877 2.4813058 3.332566
1.4688023 1.5608981 1.9205877 1.9604902 2.0654228 2.6728883 1.7386746 1.4210151
1.6342838 1.7883301 1.4054226 2.172106 1.666623 1.0912067 1.7202247 1.8081449
2.1038074 4.634671 1.4990438 1.2137266 1.437525 1.8891118 1.611931 1.575648
1.8158187 1.7379061 1.8326329 1.5744832 2.0896845 2.4013703 1.8610889 3.2133343
1.3793892 1.8416455 2.7368526 1.7350367 2.1958938 1.7901686 2.0689428 2.0657668
1.6612124 3.6628385 2.431597 2.3483465 2.7301686 1.7749915 1.6548535 1.6540821
2.383555 1.7398078 1.760362 2.3788092 1.4474621 1.5030847 2.304353 2.9198928
2.2012758 1.5370121 4.598623 1.9479768 1.6474285 1.839664 1.4272919 1.6763059
1.6412352 1.9771411 2.278706 1.912158 2.4543536 1.3856642 1.9557503 1.398507
1.5226288 1.197838 1.5847789 1.880222 1.7955143 1.6248674 1.862212 1.9372568
1.9058584 1.9852824 1.842909 2.0363717 2.0397642 1.7722183 1.73009 1.5213541
1.7052368 1.8285588 2.724945 2.5736847 2.564729 1.8774493 1.8754814 2.087
1.4969065 1.8825924 3.7801301 1.3693377 2.430888 1.6359597 1.7534794 1.7889827
