src/checkpoints/cnn_stage1_A.pth (torch, 710428 bytes, 22 tensors)

conv1.weight f4 [32, 3, 3, 3]
0	0x3e11ee67	0.142511
1	0x3c3f0483	0.0116587905
2	0x3d8f0188	0.06982714
3	0x3dab3b11	0.083608754
4	0x3e49b410	0.19697595
5	0x3ebfc98b	0.37458453
6	0x3e3dae02	0.1852341
7	0x3e3fd238	0.18732536
8	0x3dc31472	0.09525384
9	0x3da2ec84	0.07955268
10	0x3d8cabf4	0.06868735
11	0xbd5277a9	-0.051383648
12	0xbdd6fd86	-0.104975745
13	0x3e0f6ed7	0.14007126
14	0x3e401a3a	0.18760005
15	0xbde689cf	-0.11256754
16	0x3c439b67	0.011938906
17	0x3e185d6f	0.14879392
18	0xbd97304f	-0.07382261
19	0x3c9525fe	0.018206593
20	0x3df106cd	0.11768875
21	0xbde14a79	-0.11000533
22	0xbcc4adc2	-0.024008635
23	0xbdf535f1	-0.11973179
24	0x3ce55e04	0.027998932
25	0xbe6b8217	-0.22998844
26	0xbdfc817f	-0.12329387
27	0xbe4c2d1b	-0.19939081
28	0x3d2a55f4	0.041585878
29	0x3df0f73d	0.11765907
30	0xbc830d29	-0.015997486
31	0xbe020e06	-0.12700662
32	0x3c213c36	0.009841016
33	0xbe48b3fa	-0.19599906
34	0x3dd2db4a	0.10295732
35	0x3cbc489a	0.022983838
36	0xbe39cd33	-0.18144684
37	0xbe39cab6	-0.18143734
38	0x3e777ebf	0.24169444
39	0x3d9993ad	0.0749887
40	0x3daa6590	0.08320153
41	0x3e1aaf7f	0.15106009
42	0x3d6dc9f8	0.05805394
43	0x3e075a28	0.13217986
44	0x3d5953e3	0.053058516
45	0xbe60cda2	-0.21953443
46	0x3da3f6dc	0.08006069
47	0x3e7705fb	0.24123375
48	0xbe4f97ff	-0.20272826
49	0xbe056614	-0.13027221
50	0x3e467537	0.19380651
51	0xbdd1952d	-0.10233531
52	0xbdd17f25	-0.10229329
53	0x3d61365c	0.05498348
54	0xbe321a1f	-0.17392777
55	0xbde6fbec	-0.11278519
56	0xbe127fbd	-0.14306541
57	0xbe23a65e	-0.15981433
58	0xbbd352e9	-0.0064490926
59	0x3b2d5ce8	0.0026453082
60	0x3e80014e	0.25000995
61	0x3e5d8379	0.21632184
62	0x3e16aef0	0.14715171
63	0xbe7d0d89	-0.24712195
64	0x3c966f5a	0.018363643
65	0xbd807c56	-0.06273715
66	0x3dd81557	0.10550945
67	0xbe31e12b	-0.17371051
68	0x3bb1902f	0.0054187994
69	0x3e0ac649	0.13552202
70	0x3e3cb715	0.18429215
71	0x3d838364	0.06421545
72	0xbdd52884	-0.10408118
73	0xbdef691b	-0.11689969
74	0xbce4e05c	-0.027939014
75	0x3da83dbf	0.08214902
76	0x3e15d7e2	0.14633134
77	0xbdadd1f7	-0.08487313
78	0x3dfe9b88	0.12432009
79	0xbdf24b58	-0.11830777
80	0x3dc64f24	0.096830636
81	0xbe394130	-0.18091273
82	0xbd138ee2	-0.036024936
83	0xbe57cc66	-0.21074066
84	0x3d81c55e	0.06336473
85	0x3c381bc5	0.0112370895
86	0xbe54f856	-0.20797858
87	0xbe313d58	-0.17308557
88	0x3d72642f	0.059177574
89	0xbe431434	-0.19050676
90	0xbe229f40	-0.15881062
91	0xbe28add2	-0.16472557
92	0xbdea0e19	-0.1142847
93	0x3db3bfde	0.0877683
94	0x3e316e21	0.17327167
95	0x3df95e3f	0.12176179
96	0x3d660775	0.056159455
97	0x3e1f47cd	0.15554734
98	0xbe521898	-0.20517194
99	0x3e221a2e	0.158303
100	0xbde3775b	-0.111067496
101	0x3e835589	0.25651196
102	0xbda87cea	-0.082269505
103	0x3d42c9f5	0.047555882
104	0x3e34ddbd	0.17662711
105	0x3e1fe0ed	0.15613146
106	0x3d8171dd	0.06320546
107	0x3e553499	0.20820846
108	0xbdef7c00	-0.11693573
109	0xbe8ffb09	-0.28121212
110	0xbe660bbc	-0.22465414
111	0x3d29268e	0.041296534
112	0xbd63504d	-0.055496503
113	0xbde1aa8a	-0.11018856
114	0x3d5d0c0c	0.053966567
115	0xbe581d1e	-0.21104857
116	0xbc1476fd	-0.009061572
117	0x3da487cc	0.08033714
118	0xbd74d8b4	-0.059776977
119	0x3d6a1390	0.057147563
120	0x3e5a55e9	0.21321835
121	0x3e34def7	0.1766318
122	0x3e371a76	0.17881188
123	0xbd8f1681	-0.06986714
124	0xbe134af0	-0.14384055
125	0x3e60f2fc	0.21967691
126	0x3b4a1961	0.003083788
127	0x3d1a8d44	0.037732378
128	0x3db22d0d	0.08699999
129	0x3da5d4c9	0.08097226
130	0xbc4b0ba3	-0.012392911
131	0x3d8ed2a5	0.06973771
132	0x3c52343f	0.012829839
133	0xbdc7d38f	-0.097571485
134	0xbe51cc20	-0.20488024
135	0x3e0c6bba	0.1371297
136	0x3e0bfabc	0.13669866
137	0xbd2f4808	-0.042793304
138	0x3e2924fe	0.16518018
139	0x3e2cbc96	0.16868815
140	0x3e1ce68c	0.15322322
141	0x3e105d83	0.14098172
142	0x3cac6b4a	0.021047253
143	0x3bd45278	0.0064795576
144	0x3dec56de	0.11540006
145	0x3de52504	0.11188701
146	0xbe173998	-0.14768064
147	0x3dd596e8	0.10429174
148	0x3dc52be3	0.09627511
149	0x3ca73396	0.02041034
150	0x3d3c5b1a	0.04598532
151	0x3df20f9a	0.11819382
152	0xbe5734a0	-0.21016169
153	0xbc331227	-0.010929621
154	0xbded9b4a	-0.11601885
155	0xbd49570e	-0.049155287
156	0x3e13b1e1	0.14423324
157	0x3e200ced	0.15629931
158	0x3d345691	0.04402787
159	0x3cf16f51	0.029472025
160	0x3d3ab4ba	0.04558251
161	0xbdc92482	-0.098214164
162	0xbe43a77b	-0.19106857
163	0xbe0fb654	-0.14034396
164	0xbe7cb627	-0.2467886
165	0xbe2c8f5a	-0.1685156
166	0xbbf7f2fb	-0.0075668073
167	0x3e34dbdb	0.17661993
168	0x3e3529ee	0.17691776
169	0x3dbc3a7e	0.09190844
170	0x3e87b73a	0.26506978
171	0xbe68d64d	-0.22738
172	0xbbb05fe1	-0.0053825234
173	0x3e309f0e	0.17248175
174	0xbe1123e1	-0.14173843
175	0x3e67a7ad	0.22622557
176	0xbd53cd54	-0.051709488
177	0x3d74657d	0.0596671
178	0x3ccaf382	0.024774317
179	0x3e4052f2	0.18781641
180	0xbdfef936	-0.12449877
181	0xbe9318f4	-0.28729975
182	0xbe7e8963	-0.24857096
183	0x3e3fb76d	0.18722315
184	0x3e52e86f	0.20596479
185	0xbe14e117	-0.1453899
186	0xbda32a8b	-0.07967099
187	0xbd1aae46	-0.037763856
188	0x3e1be751	0.15224959
189	0xbe3b2552	-0.18275955
190	0x3e35fd16	0.17772326
191	0x3e3ca34d	0.1842167
192	0xbe0835ae	-0.13301727
193	0x3db2a964	0.08723715
194	0x3e84840f	0.25882003
195	0xbd579472	-0.052631803
196	0xbdd20351	-0.10254539
197	0x3e0c00de	0.13672206
198	0xbdf1a337	-0.11798709
199	0x3e7cd466	0.24690399
200	0x3d78260f	0.06058317
201	0xbe5c3857	-0.21505867
202	0xbc714e09	-0.014728078
203	0x3e6c1bc1	0.23057462
204	0xbdd4dc4c	-0.10393581
205	0x3c624951	0.013811425
206	0x3ba887f1	0.0051431586
207	0x3e16885a	0.14700451
208	0x3e220ac0	0.15824413
209	0xbcf9bb03	-0.030484682
210	0x3e1fa1d4	0.15589076
211	0x3def795e	0.11693071
212	0xbe21b305	-0.15790947
213	0xbe67b2a8	-0.22626746
214	0xbd970243	-0.07373478
215	0xbe3826dc	-0.17983574
216	0x3cc3e3ae	0.023912277
217	0xbd5137c5	-0.051078577
218	0xbc8fa931	-0.017536731
219	0x3d880c0e	0.06642924
220	0x3e02aea7	0.12761937
221	0x3e313d10	0.1730845
222	0xbd0d2f73	-0.03446908
223	0xbe07cbee	-0.13261387
224	0xbe183b41	-0.14866354
225	0xbdc0e317	-0.09418314
226	0xbe6613db	-0.22468512
227	0xbe04e0f5	-0.1297644
228	0x3dd80063	0.10546949
229	0x3e4de150	0.20105481
230	0x3e526356	0.20545706
231	0x3d7a9dda	0.061185695
232	0xbcf113bf	-0.029428361
233	0xbdb70534	-0.08936539
234	0xbe0a2d22	-0.1349378
235	0x3db27150	0.08713019
236	0xbe17d484	-0.14827162
237	0x3dca7e86	0.09887414
238	0x3e2b2e63	0.16716914
239	0x3e437bf2	0.1909025
240	0xbe070a08	-0.1318742
241	0xbccd8e6d	-0.025092328
242	0xbdabf233	-0.08395805
243	0x3d5d3f57	0.054015484
244	0xbe097723	-0.13424353
245	0xbccde1f3	-0.025132155
246	0x3da18fe9	0.07888777
247	0xbdaa496b	-0.083147846
248	0xbb42b029	-0.002970705
249	0xbe18e8c3	-0.14932542
250	0x3da68ab0	0.08131921
251	0xbe029871	-0.12753464
252	0xbe2a3582	-0.16621974
253	0x3e1179e2	0.14206651
254	0xbe2d68a1	-0.16934444
255	0xbdbc988a	-0.09208782

conv1.bias f4 [32]
0	0x3917c068	0.00014472159
1	0xba839db0	-0.0010041501
2	0xb89df059	-7.5311116e-05
3	0xba149b63	-0.00056689064
4	0x39a9b95a	0.0003237229
5	0xb989a038	-0.00026250049
6	0xb79fe96f	-1.9062978e-05
7	0xba156e84	-0.0005700367
8	0x3a56d6e8	0.00081954757
9	0xb7c4f565	-2.3479291e-05
10	0x3a0f6d2b	0.00054712844
11	0xb9ad7295	-0.00033082502
12	0x3a85455e	0.0010167768
13	0x3a9d8faa	0.0012020965
14	0x3920d202	0.00015337023
15	0xb83a8fe4	-4.4479864e-05
16	0xb9bd7eba	-0.00036143308
17	0x38be7407	9.081518e-05
18	0x39c053f8	0.00036683655
19	0xb8bb4d2a	-8.931228e-05
20	0xb737161c	-1.0912798e-05
21	0x3996724e	0.00028695393
22	0x38c087e2	9.1805836e-05
23	0xbaf138d2	-0.0018403775
24	0xbadbde4c	-0.0016774624
25	0xb8fc0689	-0.00012017514
26	0x3acb9c52	0.0015534258
27	0xb9fb5c55	-0.00047943243
28	0xba53b4ee	-0.0008075972
29	0xb8be3af2	-9.0708854e-05
30	0xbad0ef25	-0.0015940411
31	0xb99e2756	-0.00030165416

bn1.weight f4 [32]
0	0x3f4945a0	0.78621864
1	0x3f9e8894	1.238543
2	0x3f8cd7c0	1.1003342
3	0x3f47ca29	0.78042847
4	0x3f49e660	0.7886715
5	0x3f3cbfad	0.73729974
6	0x3f530f4f	0.82445234
7	0x3f758b12	0.9591533
8	0x3f89ff9e	1.0781133
9	0x3f54fad6	0.83195245
10	0x3f4fa647	0.81113094
11	0x3f3c9af4	0.7367394
12	0x3f946117	1.159213
13	0x3f7b20a2	0.9809667
14	0x3f3de436	0.7417635
15	0x3f530092	0.82422745
16	0x3f4df8ab	0.8045756
17	0x3f475ffb	0.7788083
18	0x3f54e488	0.8316121
19	0x3f7bde39	0.9838596
20	0x3f4079bc	0.7518575
21	0x3f565220	0.8371906
22	0x3f5994df	0.84992784
23	0x3f9208fb	1.1408991
24	0x3f9e1b82	1.2352145
25	0x3f5d9db7	0.8656878
26	0x3f632700	0.88731384
27	0x3f43e9f3	0.76528853
28	0x3f3b0b7a	0.73064387
29	0x3f907f8b	1.1288923
30	0x3f7b952b	0.9827449
31	0x3f4d7d1d	0.8026903

bn1.bias f4 [32]
0	0xbea4142e	-0.32046646
1	0xbdea06af	-0.11427056
2	0xbd62c449	-0.055362973
3	0xbd0d4f15	-0.034499247
4	0xbe9c9059	-0.3057888
5	0xbeb55467	-0.35415956
6	0xbeb75aa7	-0.3581135
7	0xbe9f6319	-0.31130293
8	0xbd8078f2	-0.062730685
9	0xbe306a5b	-0.17228071
10	0xbe8d15ff	-0.27555844
11	0xbd2db7a2	-0.042411454
12	0xbd0a040a	-0.03369526
13	0x3e40cdc4	0.18828493
14	0xbe75f95a	-0.24020901
15	0xbe4b0078	-0.19824398
16	0xbe917412	-0.28408867
17	0xbee79508	-0.4523089
18	0xbe6b1ec3	-0.22960953
19	0xbe38a335	-0.18031009
20	0xbeb0e2d3	-0.34548053
21	0x3ca64bf6	0.020299893
22	0xbec4f020	-0.3846445
23	0xbe7e444f	-0.24830745
24	0xbddc508c	-0.107575506
25	0xbe4bbc0d	-0.19895954
26	0xbdb89451	-0.09012664
27	0xbe26617b	-0.16248123
28	0xbd6844bc	-0.056706175
29	0xbdf3a083	-0.118958496
30	0xbeacace4	-0.33725655
31	0xbeab59af	-0.3346686

bn1.running_mean f4 [32]
0	0x3fa7429e	1.3067205
1	0xbc8f4199	-0.017487334
2	0x3d16d03b	0.036819678
3	0x3d97fdf8	0.074214876
4	0xbe90f6e3	-0.2831336
5	0x3fc09bc9	1.5047542
6	0xbe47f9a2	-0.19528821
7	0x3ef0a102	0.4699784
8	0x3d5e64ba	0.05429528
9	0x3f611259	0.8791862
10	0x3eec2bd5	0.4612719
11	0x3e810b13	0.2520376
12	0xbd06da18	-0.032922834
13	0x3daba325	0.08380727
14	0x3f37e26d	0.71829873
15	0x3eddce64	0.43321526
16	0xbe1ea831	-0.15493847
17	0xbfc6fc32	-1.5545714
18	0x3f836ce5	1.0267607
19	0x3ed64acb	0.41853938
20	0x3ff40576	1.9064167
21	0x3d3f160f	0.046651896
22	0xbee2ed1d	-0.44321528
23	0x3bb9a140	0.0056649745
24	0x3c96417d	0.018341774
25	0x3e86f3a9	0.26357773
26	0xbbb7fecc	-0.005615091
27	0x3c356e0e	0.011073602
28	0xbe13fbe9	-0.14451565
29	0xbda54ce4	-0.08071306
30	0xbb213fe3	-0.002460473
31	0x3f4f0221	0.80862623

bn1.running_var f4 [32]
0	0x4029a0d6	2.6504416
1	0x3e53eab2	0.20694998
2	0x3e67111a	0.22565117
3	0x3ee93e96	0.45555562
4	0x3e922b53	0.2854868
5	0x403b7ab1	2.9293635
6	0x3ea67ed6	0.32518643
7	0x3ef00df8	0.46885657
8	0x3d86907d	0.06570528
9	0x3fa4b7ef	1.2868632
10	0x3eab73eb	0.33486876
11	0x3e3b9447	0.18318282
12	0x3e1430b9	0.14471711
13	0x3d3f37e3	0.046684157
14	0x3f569118	0.83815145
15	0x3ef4814b	0.47754893
16	0x3ec84a09	0.39118984
17	0x405960e6	3.3965392
18	0x3fc5cd08	1.5453196
19	0x3f0056d7	0.5013251
20	0x409f430c	4.9769344
21	0x3df53b40	0.11974192
22	0x3ef2dab7	0.4743249
23	0x3d320f6c	0.04347174
24	0x3db7cbe4	0.08974436
25	0x3e22042b	0.15821902
26	0x3d9cdec3	0.07659676
27	0x3dc978d6	0.09837501
28	0x3e17a7b7	0.14810072
29	0x3d8ca870	0.068680644
30	0x3ddb6f84	0.10714629
31	0x3f864b96	1.0491817

conv2.weight f4 [64, 32, 3, 3]
0	0xbc708892	-0.014680998
1	0xbd83c53e	-0.06434105
2	0xbdcb43f8	-0.099250734
3	0x3b843872	0.004035049
4	0xbd530db4	-0.05152674
5	0xbdfba4e3	-0.12287309
6	0xbccc6aa6	-0.024953198
7	0xbceb929a	-0.028756429
8	0xbd83d6a3	-0.06437423
9	0x3e78a65c	0.24282211
10	0xbe332622	-0.17495015
11	0xbe176423	-0.14784293
12	0x3daf4a58	0.08559102
13	0x3d09cb66	0.03364124
14	0xbd840887	-0.06446939
15	0xbe8c40df	-0.27393243
16	0x3e5193e8	0.20466578
17	0x3e2a0df2	0.16606882
18	0xbd97add7	-0.07406204
19	0xbd237ddc	-0.03991495
20	0xbbb102ce	-0.0054019457
21	0xbdb89323	-0.09012439
22	0xbe84fbe3	-0.25973424
23	0xbc27038b	-0.010193716
24	0xbcd31860	-0.025768459
25	0x3da266b5	0.07929746
26	0x3cd6e181	0.026230576
27	0x3c8451bd	0.016152257
28	0x3d439881	0.04775286
29	0xbd064a39	-0.032785628
30	0x3c7fa645	0.015603607
31	0xbd93aa50	-0.07210219
32	0x3d095624	0.033529416
33	0x3d722ab2	0.05912275
34	0x3a81ecc7	0.0009912484
35	0xbb3442c6	-0.002750562
36	0x3a1251bb	0.0005581637
37	0x3d24b7bb	0.04021428
38	0x3bdbfb9e	0.0067133447
39	0x3cca36b3	0.024684286
40	0xbcc0981b	-0.02351003
41	0xbc5655f7	-0.013082019
42	0x3cd18a33	0.025578594
43	0x3d5cf8e4	0.053948298
44	0xbd8a4c2a	-0.067528084
45	0xbd46d91a	-0.048546888
46	0xba4ef18a	-0.00078942685
47	0x3cbf51c6	0.023354422
48	0xbdb9a1e8	-0.09064084
49	0xbc21f119	-0.009884142
50	0xbdb6e808	-0.08930975
51	0xbd5a8203	-0.053346645
52	0xbdd90aa9	-0.105977364
53	0xbd932649	-0.07185037
54	0xbde80d8f	-0.11330711
55	0xbde7896c	-0.11305508
56	0x3d8e9107	0.069612555
57	0xbe517417	-0.20454441
58	0xbd9f31d6	-0.07773177
59	0xbd2164e5	-0.03940286
60	0xbbb35388	-0.005472604
61	0x3d8a83cc	0.067634195
62	0xbc926dec	-0.01787468
63	0x3c2378f6	0.00997757
64	0xbbc54de9	-0.0060212505
65	0xbddffd57	-0.109369926
66	0xbc91cd60	-0.017798126
67	0x3d9564b5	0.07294599
68	0xbdad2b3e	-0.084555134
69	0xbdd07eb4	-0.10180417
70	0x3d27c645	0.04096057
71	0x3bbb77fe	0.0057210913
72	0xbc354a47	-0.011065072
73	0xbd874212	-0.06604399
74	0x3d8cb020	0.06869531
75	0xbd6ba0d9	-0.057526443
76	0xbdbdd1e3	-0.09268548
77	0xbce65b6d	-0.028119767
78	0x3d4e84ba	0.050419547
79	0x3ce9ff41	0.028564097
80	0x3de315dc	0.11088154
81	0x3d8ebd2e	0.06969677
82	0x3db2c1f4	0.087284
83	0xbc6f8b2d	-0.014620584
84	0x3ce60d5b	0.02808254
85	0xbbcb1e86	-0.006198707
86	0x3cf6db8f	0.03013399
87	0xbd94797a	-0.07249732
88	0xbe0b0391	-0.13575579
89	0xbd36f710	-0.04466921
90	0x3da7c870	0.08192527
91	0x3d24ce5f	0.040235873
92	0xbe018b26	-0.12650737
93	0xbaaa2494	-0.0012980872
94	0xbaf49355	-0.0018659631
95	0xbd85e155	-0.06537119
96	0xbd261c14	-0.04055412
97	0xbb9d35de	-0.0047976812
98	0x3d0c7048	0.034286767
99	0x3cf59594	0.029978551
100	0x3b11b8f7	0.0022235492
101	0xbd4fbf0b	-0.050719302
102	0xbc15d808	-0.009145744
103	0x3d660d61	0.056165103
104	0xbd79543e	-0.060871355
105	0x3c5be90d	0.013422263
106	0x3d0f72f8	0.035021752
107	0xbd9b8aba	-0.07594819
108	0xbea8d498	-0.32974696
109	0x3d2fd8ca	0.042931356
110	0x3e1259cc	0.14292067
111	0x3dd6f138	0.104952276
112	0x3d95dafb	0.07317158
113	0xbc8f7a8e	-0.017514493
114	0x3e1a5aaa	0.15073648
115	0xbdae3d6a	-0.085078076
116	0xbead7728	-0.33879972
117	0x3e2944ad	0.16530104
118	0xbde30927	-0.1108573
119	0xbda845c7	-0.08216434
120	0xbdb5a255	-0.08868853
121	0x3c8d81a3	0.01727373
122	0x3ca9efdc	0.020744257
123	0xbe64f5a2	-0.22359326
124	0x3e2ba24e	0.16761133
125	0x3dbcddeb	0.09222015
126	0x3d640615	0.055669863
127	0xbcc37119	-0.02385764
128	0xbe17b944	-0.14816767
129	0xbdced92d	-0.10100017
130	0xbca3bd58	-0.019987747
131	0xbd3a9091	-0.045548026
132	0xbda48bdc	-0.080344886
133	0xbd17f6c7	-0.03710058
134	0x3cc3014e	0.023804333
135	0xbc684b52	-0.014178114
136	0x3c44e8a6	0.012018358
137	0x3c8bbd42	0.017058019
138	0xbc75ac16	-0.014994642
139	0x3c47ce19	0.012195134
140	0xbc9a87dd	-0.018863613
141	0x3db75868	0.08952409
142	0x3c1a2060	0.009407133
143	0x3d4db177	0.05021807
144	0x3c9e094f	0.019291548
145	0x3d39b181	0.045335297
146	0xbc88c1d4	-0.016693987
147	0x3ce39638	0.02778159
148	0xbcf71d68	-0.03016539
149	0xbc42eb5d	-0.011896935
150	0x3cfdf6f0	0.031001538
151	0x3bd95afb	0.00663316
152	0xbd443388	-0.047900707
153	0xbdbf650a	-0.093454435
154	0xbd7f2659	-0.06229243
155	0xbca7341c	-0.02041059
156	0xbc8bbd6b	-0.017058095
157	0xbc3a0d89	-0.011355766
158	0xbd991a6f	-0.07475745
159	0xbca703a2	-0.020387474
160	0x3cf99ddc	0.030470781
161	0xbd37cc42	-0.04487253
162	0xbdbae198	-0.0912506
163	0x3e057047	0.13031112
164	0x3c4e55b0	0.012593672
165	0xbc06a2ca	-0.008217523
166	0x3d9ac11e	0.075563654
167	0x3d3e25a5	0.04642262
168	0xbcf77c8a	-0.030210752
169	0xbd66f710	-0.05638796
170	0xbdbcb844	-0.092148334
171	0x3ac442e9	0.0014973554
172	0xbddf51fb	-0.109043084
173	0xbdb57b3e	-0.08861397
174	0xbcdd577c	-0.027019255
175	0xbcacd773	-0.021098828
176	0xbce443d8	-0.027864382
177	0xba23034b	-0.0006218447
178	0x3d3e6c47	0.04648998
179	0xbbfbb44e	-0.007681406
180	0xbd3ecf2d	-0.046584297
181	0xbd9ea532	-0.07746352
182	0xbd46bfc0	-0.04852271
183	0xbd8301d1	-0.06396831
184	0xbcd3fc76	-0.025877219
185	0xbda0e5c8	-0.07856327
186	0xbe10ff08	-0.14159787
187	0xbdf42368	-0.11920816
188	0xbcf9e9e4	-0.030507036
189	0xbe89556a	-0.26822978
190	0x3d6a9963	0.057275187
191	0x3d961992	0.07329096
192	0xbbec46f6	-0.0072106076
193	0xbbae918b	-0.0053274087
194	0x3dd81195	0.105502285
195	0x3e36b1cf	0.17841266
196	0x3c8e4ee4	0.017371602
197	0xbe11a089	-0.14221396
198	0xbbcfacaf	-0.006337724
199	0xbd5d5b22	-0.05404199
200	0xbd59bf66	-0.053161047
201	0x3d986857	0.07441776
202	0x3d5a4ac4	0.05329396
203	0xbc8f84d6	-0.017519396
204	0xbcddca1b	-0.02707391
205	0x3de03986	0.10948472
206	0x3d2b6cd0	0.04185182
207	0x3c32186f	0.010870083
208	0xbdd1411d	-0.102174975
209	0x3c835892	0.016033445
210	0x3d045995	0.032311995
211	0x3d50b328	0.050952107
212	0xbd8a2bf7	-0.06746667
213	0xbe28aed5	-0.16472943
214	0x3d17ae6c	0.037031576
215	0xbe57d45b	-0.21077101
216	0x3dabc8e0	0.08387923
217	0xbdb3bb51	-0.08775962
218	0x3d8a7ed9	0.067624755
219	0xbc8cbd3a	-0.017180074
220	0x3d50c389	0.050967727
221	0xbde7113d	-0.11282585
222	0x3be2c886	0.006920877
223	0x3e63da40	0.22251225
224	0x3c2f53a1	0.010701091
225	0xbe2de181	-0.16980554
226	0x3d1d32d4	0.03837855
227	0x3d146a3f	0.036234137
228	0x3d8993ca	0.06717642
229	0x3cf1fec9	0.029540436
230	0xba8a388f	-0.001054542
231	0xbbdd1699	-0.0067470786
232	0xbbcd8b95	-0.006272743
233	0xbdf3108e	-0.11868392
234	0xbddfc581	-0.10926343
235	0x3de981a9	0.11401684
236	0x3d967431	0.073463805
237	0x3e0dcae7	0.13846932
238	0xbcee29a4	-0.02907259
239	0xbe021b82	-0.12705806
240	0x3d0d44fc	0.034489617
241	0xbe1be8d7	-0.1522554
242	0xbe3423dc	-0.17591804
243	0xbe8ac5f0	-0.2710414
244	0x3c1ccaa0	0.009569794
245	0x3daecb03	0.08534815
246	0xbe02cc8b	-0.1277334
247	0x3d3985bf	0.045293566
248	0x3c8165b0	0.015795559
249	0x3de3f26f	0.11130225
250	0xbc9f52ab	-0.019448599
251	0xbe13561b	-0.14388315
252	0xbdaa8297	-0.08325689
253	0x3c113a64	0.008864019
254	0xbd4e6ebf	-0.050398584
255	0x3ba4fd5b	0.005035085

conv2.bias f4 [64]
0	0xb7750f8c	-1.4606758e-05
1	0xb8cacf84	-9.6707634e-05
2	0xb8dea189	-0.00010615873
3	0x389220c0	6.967923e-05
4	0xb908ade4	-0.0001303475
5	0xb831207d	-4.2230346e-05
6	0xb8bdd4ae	-9.051837e-05
7	0xb984c731	-0.0002532541
8	0xb899bed1	-7.331151e-05
9	0xb904faec	-0.00012681977
10	0x387fcbf3	6.098668e-05
11	0xb716ae81	-8.981327e-06
12	0xb7db8011	-2.616647e-05
13	0x394b5963	0.00019392888
14	0xb8ce2f11	-9.831612e-05
15	0x3880bec6	6.13905e-05
16	0xb9520426	-0.00020028706
17	0xb92def82	-0.0001658779
18	0x37e2a4ba	2.7018006e-05
19	0x39978fbd	0.00028908058
20	0x3872cc9c	5.7887853e-05
21	0xb8e4f104	-0.0001091678
22	0x391a64ef	0.00014724185
23	0xb76042f1	-1.3367026e-05
24	0x39163d9f	0.0001432807
25	0xb938b802	-0.00017616156
26	0xb69b9887	-4.6371165e-06
27	0x39bf769a	0.00036518724
28	0x37b42fab	2.147987e-05
29	0x38b6db83	8.7193235e-05
30	0xb94adfc9	-0.00019347588
31	0xb8e512b1	-0.000109230525
32	0xb980882b	-0.00024515516
33	0x36b8b004	5.5041182e-06
34	0x3831babf	4.237401e-05
35	0xb9c7a56b	-0.00038079484
36	0x37d9aef7	2.594989e-05
37	0xb931f831	-0.00016972494
38	0xb71c9419	-9.332806e-06
39	0x391e1146	0.00015074489
40	0xb865d545	-5.4796477e-05
41	0xb8a7e686	-8.006119e-05
42	0xb8a0167d	-7.633583e-05
43	0xb84b04d5	-4.840347e-05
44	0x39576f3f	0.0002054544
45	0xb891d89b	-6.954485e-05
46	0x384124ec	4.6049172e-05
47	0xb894b68c	-7.091192e-05
48	0xb7d7e28d	-2.5735493e-05
49	0xb8a56ff2	-7.8886645e-05
50	0xb8be9d74	-9.089234e-05
51	0xb745ddc8	-1.17937525e-05
52	0xb823226d	-3.889429e-05
53	0xb70c33bc	-8.356696e-06
54	0x3925cbf7	0.00015811609
55	0x388d4518	6.736274e-05
56	0x395a25f3	0.00020804237
57	0xb815ab05	-3.5683643e-05
58	0x39067dae	0.00012826055
59	0x383fe39f	4.5749937e-05
60	0x381d6b99	3.7531925e-05
61	0x389e18fd	7.5386815e-05
62	0xb9366b98	-0.00017396954
63	0xb9268a25	-0.00015882457

bn2.weight f4 [64]
0	0x3f68b1e8	0.90896463
1	0x3f5bd9a4	0.8587897
2	0x3f8bbe59	1.0917464
3	0x3f70b362	0.94023716
4	0x3f65e1b9	0.8979755
5	0x3f6f8a60	0.9357052
6	0x3f68b7bc	0.90905356
7	0x3f644fb8	0.8918414
8	0x3f77b416	0.96759164
9	0x3f45d977	0.7728495
10	0x3f58508a	0.8449789
11	0x3f6ae174	0.91750264
12	0x3f45d063	0.772711
13	0x3f6eef74	0.93334126
14	0x3f4391a8	0.7639413
15	0x3f2f8783	0.6856615
16	0x3f5bf9b9	0.8592792
17	0x3f6396fd	0.88902265
18	0x3f5101c8	0.8164334
19	0x3f838fa2	1.0278208
20	0x3f85009c	1.0390811
21	0x3f4ed933	0.8080017
22	0x3f6c5a6d	0.9232548
23	0x3f8e0831	1.109625
24	0x3f759bce	0.95940864
25	0x3f6f7f5e	0.9355372
26	0x3f425942	0.75917447
27	0x3f87ecbb	1.061912
28	0x3f4bbb39	0.79582554
29	0x3f40931e	0.75224483
30	0x3f67c318	0.90532064
31	0x3f73bbfa	0.95208704
32	0x3f6a35ac	0.91488147
33	0x3f71d781	0.9446946
34	0x3f7121da	0.9419228
35	0x3f89cc05	1.0765387
36	0x3f6758d5	0.9036992
37	0x3f7bd84c	0.9837692
38	0x3f7db135	0.9909852
39	0x3f7a9c28	0.97894526
40	0x3f93e734	1.1554933
41	0x3f561101	0.83619696
42	0x3f825e24	1.018498
43	0x3f2f9723	0.6858999
44	0x3f808e8e	1.0043504
45	0x3f67e265	0.90579826
46	0x3f735af9	0.9506069
47	0x3f55d0ff	0.8352203
48	0x3f77a582	0.9673692
49	0x3f62cfa1	0.88598067
50	0x3f863fa4	1.0488172
51	0x3f58ab94	0.8463681
52	0x3f36774b	0.71275777
53	0x3f69ee7b	0.9137952
54	0x3f6139fa	0.8797909
55	0x3f4975d2	0.78695405
56	0x3f48e266	0.78470457
57	0x3f44dd4f	0.7690019
58	0x3f40760e	0.7518014
59	0x3f492d84	0.78585076
60	0x3f5d8d28	0.8654351
61	0x3f4bab32	0.795581
62	0x3f644bff	0.8917846
63	0x3f72ab05	0.94792205

bn2.bias f4 [64]
0	0xbeaca466	-0.33719176
1	0xbe86ca8a	-0.263264
2	0xbe2bee87	-0.1679021
3	0xbefe5124	-0.4967128
4	0xbe847199	-0.25867918
5	0xbddee315	-0.10883156
6	0xbf259bfb	-0.6469113
7	0xbf148421	-0.5801411
8	0xbe74e771	-0.23916413
9	0xbed9026a	-0.42384654
10	0xbeced610	-0.40397692
11	0xbe1c3b2f	-0.15256952
12	0xbe6ab8ab	-0.22922008
13	0xbe92f7b9	-0.28704622
14	0xbf0b9576	-0.54524934
15	0xbf00d15c	-0.5031946
16	0xbf0b93d9	-0.5452247
17	0xbe8f406e	-0.27978843
18	0xbeefe889	-0.46857098
19	0xbe8d2c5e	-0.27572912
20	0xbe662181	-0.22473718
21	0xbeaa5c3d	-0.33273497
22	0xbeb569d6	-0.3543231
23	0xbeae2fb4	-0.3402077
24	0xbef0c7cc	-0.47027433
25	0xbed3e34e	-0.41384357
26	0xbf0d9591	-0.55306345
27	0xbf0d371b	-0.5516221
28	0xbe17d8a7	-0.1482874
29	0xbec70dec	-0.3887781
30	0xbeda39c3	-0.42622194
31	0xbe888f3a	-0.26671773
32	0xbf065d4a	-0.524861
33	0xbec55e94	-0.3854872
34	0xbead93a5	-0.33901706
35	0xbe4c585e	-0.19955584
36	0xbe7dd63b	-0.24788754
37	0xbe198a11	-0.14994074
38	0xbed3ca75	-0.413654
39	0xbe698093	-0.22802953
40	0xbe76ed03	-0.2411385
41	0xbec8ee85	-0.39244476
42	0xbed2a886	-0.41144198
43	0xbed20b78	-0.41024375
44	0xbe958dbc	-0.29209697
45	0xbeff3da1	-0.49851707
46	0xbe6fa773	-0.2340372
47	0xbebae52d	-0.36502972
48	0xbeba4205	-0.36378494
49	0xbee78a07	-0.45222494
50	0xbea9f70c	-0.33196294
51	0xbeef4e8f	-0.46739623
52	0xbedb638d	-0.4284939
53	0xbd3ea46c	-0.046543524
54	0xbe96d36b	-0.29458174
55	0xbec4f4a7	-0.38467905
56	0xbe6f44e6	-0.23366126
57	0xbeb8955a	-0.36051446
58	0xbea7c993	-0.32770976
59	0xbeecec24	-0.4627391
60	0xbea4d301	-0.32192233
61	0xbe88522d	-0.26625195
62	0xbed2f7a4	-0.4120456
63	0xbf060b58	-0.5236106

bn2.running_mean f4 [64]
0	0xbf8fc9ab	-1.1233419
1	0xbf91fa00	-1.1404419
2	0xc0171070	-2.3603783
3	0x3e9282f0	0.28615522
4	0xbf9f4f35	-1.2446047
5	0xc0009ec7	-2.009691
6	0x400fcbfd	2.2468255
7	0xbef77418	-0.4833076
8	0xbf8a94db	-1.0826677
9	0xbdc794fe	-0.09745215
10	0xbf8b0a6b	-1.0862554
11	0xc0000c59	-2.0007536
12	0xbf960306	-1.1719673
13	0xbf98fbb6	-1.1951816
14	0x3fc7bbf5	1.5604235
15	0x4016db7d	2.3571465
16	0xbf89d235	-1.0767275
17	0xbe498481	-0.19679452
18	0x3f28c4f0	0.659255
19	0xbf0a8c0a	-0.5411993
20	0xbfd706ac	-1.6798911
21	0xc002b379	-2.0422041
22	0x3d156452	0.036472626
23	0xc025a396	-2.5881095
24	0xbf85dbba	-1.045768
25	0xbfa75b69	-1.3074771
26	0x3f84efd4	1.038569
27	0xbf360954	-0.71107984
28	0xbffb479f	-1.9631232
29	0xbf5c6573	-0.860923
30	0xbf8a5d79	-1.0809776
31	0xc0136a43	-2.3033607
32	0xbf777829	-0.96667725
33	0xc01f253c	-2.4866476
34	0xc018827e	-2.3829646
35	0xc0021db3	-2.0330627
36	0xbf8fdf65	-1.124005
37	0xc02d273e	-2.7055202
38	0xbf1f0f45	-0.62132674
39	0xbf006f15	-0.501695
40	0xc04b56cd	-3.177173
41	0xbf9b62f2	-1.2139571
42	0xbf298979	-0.6622539
43	0x3f267c2a	0.6503321
44	0xbfa7250c	-1.3058181
45	0x3faee584	1.3663793
46	0xbfec7979	-1.847457
47	0xbfcd8878	-1.6057272
48	0xbee3b6d4	-0.44475424
49	0xc0063640	-2.0970612
50	0xbf64e398	-0.8940978
51	0xbf315435	-0.69269115
52	0xbf460703	-0.7735445
53	0xbfa48885	-1.2854162
54	0xbfce15d0	-1.6100407
55	0xbff82245	-1.9385458
56	0xbfc76e59	-1.558055
57	0xbfab257f	-1.3370818
58	0xbe8c460e	-0.27397197
59	0xbed67a81	-0.41890338
60	0xbf6f9a8f	-0.9359521
61	0xbfd83f62	-1.6894343
62	0xbf940162	-1.1562922
63	0xbf52f692	-0.82407486

bn2.running_var f4 [64]
0	0x40389fd8	2.884756
1	0x40d14061	6.5391088
2	0x412abfd9	10.671838
3	0x40901aa3	4.5032516
4	0x40bd533f	5.916412
5	0x41166b2f	9.401168
6	0x4098ee16	4.779063
7	0x3fb8d031	1.4438535
8	0x40e63a65	7.1946282
9	0x4027f624	2.6243982
10	0x4020f584	2.514985
11	0x4108d304	8.5515175
12	0x40d4ff1a	6.6561403
13	0x40cdc5da	6.430402
14	0x40a363d7	5.1059375
15	0x405407c1	3.3129733
16	0x4022fd88	2.5467243
17	0x404ac318	3.1681576
18	0x40831427	4.09621
19	0x40a7cb02	5.243531
20	0x412f78b9	10.966973
21	0x404c6599	3.193701
22	0x404de106	3.2168593
23	0x4186b4a7	16.83821
24	0x40637afd	3.5543816
25	0x402a819b	2.6641605
26	0x4081f380	4.060974
27	0x402c4486	2.6916823
28	0x40c9ef5e	6.3104696
29	0x40994b74	4.7904606
30	0x3fe5bdc0	1.7948532
31	0x416ee606	14.931158
32	0x3f9f28f7	1.2434376
33	0x40db6f8f	6.857368
34	0x40aa2229	5.31667
35	0x412523f2	10.321276
36	0x4099db9a	4.808057
37	0x40dc2dec	6.8806057
38	0x4066b32a	3.6046853
39	0x405ab5f6	3.417356
40	0x41769de9	15.413552
41	0x40739100	3.805725
42	0x40848642	4.141389
43	0x403cb3c0	2.948471
44	0x406441d1	3.566517
45	0x403b5305	2.926942
46	0x40dbb0da	6.8653383
47	0x40bafc19	5.8432736
48	0x4083dd2d	4.120749
49	0x4063dda9	3.560404
50	0x40d1c819	6.555676
51	0x4039a68c	2.9007902
52	0x4022bbb0	2.5427055
53	0x4050e885	3.2641919
54	0x407d2782	3.9555364
55	0x406e1665	3.7201169
56	0x404fd22d	3.247203
57	0x4019b44a	2.401629
58	0x40c4b513	6.147104
59	0x3fd2ec12	1.6478293
60	0x40c9f8e9	6.3116345
61	0x40779c97	3.8689325
62	0x4007e380	2.1232605
63	0x3f66b384	0.9011767

conv3.weight f4 [128, 64, 3, 3]
0	0x3ca104f3	0.01965568
1	0xbc8f7572	-0.017512057
2	0xbcf5fdba	-0.030028213
3	0x3cb0bb10	0.021573573
4	0x3d5a7d4c	0.05334215
5	0xbccc3ef7	-0.024932368
6	0x3b996a34	0.00468185
7	0x3d14d85d	0.036339153
8	0xbb0bdbc9	-0.002134072
9	0x3c6c0be7	0.014407135
10	0xb9b36d3c	-0.00034222926
11	0xbb018404	-0.0019762525
12	0x3c4767f9	0.012170785
13	0xbd0742e9	-0.033022795
14	0xbae6a9c4	-0.0017598202
15	0x3c94804c	0.018127583
16	0x3c9adfd1	0.018905552
17	0xbcb159cf	-0.02164927
18	0xbd6f767b	-0.0584626
19	0xbd2bdb78	-0.04195735
20	0x3c9bda13	0.019024884
21	0xbde790b7	-0.11306899
22	0xbd6b6b12	-0.057475157
23	0x3d87ef8f	0.06637489
24	0xbd861bdf	-0.06548285
25	0xbcbbd1f4	-0.022927262
26	0x3db7499f	0.08949589
27	0x3ded4bf7	0.11586755
28	0x3e09a1b4	0.13440591
29	0x3dd14aad	0.102193214
30	0x3dd67ee4	0.10473421
31	0x3d22ea82	0.039774425
32	0x3df38827	0.118912034
33	0x3d513e3d	0.051084746
34	0x3c68f49a	0.014218474
35	0x3e08e0ec	0.13367051
36	0xbd2ad82b	-0.04171006
37	0xbdb2f655	-0.0873839
38	0xbe157997	-0.14597164
39	0xbcfb179f	-0.030650912
40	0xbe0369fe	-0.12833402
41	0xbdf4b620	-0.119488
42	0xbd803baf	-0.06261384
43	0xbe2b6e0a	-0.16741195
44	0xbdebcc72	-0.11513604
45	0xbde0d4e4	-0.10978106
46	0xbd4edf18	-0.050505728
47	0x3d1580d3	0.03649981
48	0xbd09432b	-0.033511322
49	0x3cbbcae9	0.022923904
50	0x3da24cc7	0.079248
51	0xbd8dd36f	-0.069250934
52	0x3c9ae668	0.018908694
53	0x3db6d4cc	0.089273065
54	0xbcc45c5a	-0.023969818
55	0xbd8c366b	-0.06846317
56	0xbd4fc134	-0.050721362
57	0xbd829378	-0.06375784
58	0xbe23e5f7	-0.16005693
59	0xbd0dcdb4	-0.034620002
60	0xbdd7d0a9	-0.10537846
61	0xbdcd8610	-0.10035336
62	0x3ca13574	0.019678809
63	0xbb5db502	-0.0033829813
64	0x3cb6a0d3	0.022293484
65	0xbd986fbd	-0.074431874
66	0x3daddf84	0.08489898
67	0x3d9eb2ee	0.07748972
68	0x3b95f764	0.0045766104
69	0x3dce1fc6	0.10064654
70	0x3d7cf72f	0.06175917
71	0xbb56f904	-0.0032802233
72	0xbe02612d	-0.12732382
73	0xbd8ab092	-0.06771959
74	0xbd8affc7	-0.06787067
75	0xbdb0eb4f	-0.086386316
76	0xbc55c8d3	-0.0130483685
77	0xbd1894d3	-0.037251305
78	0xbd5c685b	-0.05381046
79	0x3c27b4b2	0.010235952
80	0xbdfa64f1	-0.12226284
81	0xbce9b77e	-0.028529879
82	0xb96f6662	-0.00022830957
83	0xbbb8f976	-0.0056449724
84	0xbd20ddd3	-0.039274048
85	0xbb62002e	-0.003448497
86	0x3d527deb	0.051389616
87	0xbda23dbc	-0.07921931
88	0xbcc59cb1	-0.024122568
89	0x3d98895a	0.07448073
90	0xbcdeacb6	-0.027181964
91	0xbd652230	-0.055940807
92	0xbd5a4dae	-0.053296737
93	0xbc08fa46	-0.008360451
94	0x3cbe267b	0.023211708
95	0xbcadc5ab	-0.02121242
96	0x3d2b5ca8	0.04183641
97	0x3b867674	0.004103476
98	0xbd62d204	-0.055376068
99	0xbd9f5d87	-0.07781511
100	0x3c5c1e1c	0.013434913
101	0x3dca6e32	0.09884299
102	0xbb9e2d74	-0.004827196
103	0x3dd9d0ce	0.106355295
104	0x3df40c76	0.11916439
105	0x3d0169dd	0.0315951
106	0x3ddf6463	0.10907819
107	0x3d50154a	0.050801553
108	0x3cdc273a	0.026874173
109	0x3c5c7900	0.013456583
110	0x3c825f7d	0.015914673
111	0x3d1e7208	0.038682967
112	0x3c21e07f	0.009880184
113	0xb9d1b299	-0.00039996652
114	0x3d48fccd	0.049069215
115	0xbc6d97fa	-0.014501566
116	0x3c94d62c	0.018168531
117	0xbcceba1e	-0.025235232
118	0xbdd07904	-0.10179332
119	0xbcad0d38	-0.021124467
120	0xbbb11878	-0.005404528
121	0xbda0556d	-0.07828794
122	0x3bd57387	0.006514016
123	0xbda6c557	-0.08143108
124	0xbda1a7a2	-0.078933015
125	0xbbc214db	-0.0059228963
126	0xbdc7197b	-0.09721657
127	0xbde6750d	-0.112527944
128	0xbd556815	-0.052101213
129	0xbdad8d75	-0.084742464
130	0xbde53d61	-0.11193348
131	0xbda0b746	-0.07847457
132	0xbe1ce8bb	-0.15323155
133	0xbe3a6b88	-0.18205082
134	0xbe1577bb	-0.14596455
135	0xbcacc4bd	-0.021089906
136	0x3cbfec14	0.023428
137	0xbb211b0a	-0.0024582767
138	0xbd119fc9	-0.035552774
139	0xbcd0b2f3	-0.025475955
140	0x3c4539f8	0.012037747
141	0x3c794ef1	0.015216575
142	0xbb8347ae	-0.0040063476
143	0xbaf72934	-0.0018856884
144	0xbdefc781	-0.11707974
145	0xbd9389e9	-0.07204039
146	0xbdd07751	-0.10179008
147	0xbd8a733f	-0.06760263
148	0xbd3c6900	-0.045998573
149	0xbd939b00	-0.07207298
150	0xbc2781c1	-0.010223807
151	0x3c83770b	0.016047975
152	0xbcab5e1f	-0.020918904
153	0xbd767406	-0.060169242
154	0x3d9a2f42	0.07528545
155	0x3d3e8d9c	0.046521768
156	0xbd4beea6	-0.04978814
157	0x3d5f501b	0.054519754
158	0x3d144ead	0.036207844
159	0xbd0b02e3	-0.0339383
160	0x3c5bf534	0.01342516
161	0x3d559562	0.052144416
162	0xbd0ab6e1	-0.033865813
163	0xbd8ae993	-0.06782832
164	0xbdf36a73	-0.11885538
165	0xbd334afc	-0.043772683
166	0xbc1e78ab	-0.009672324
167	0xbd7ec53f	-0.062199827
168	0xbd820351	-0.06348289
169	0xbd2847fe	-0.041084282
170	0xbd54d5d2	-0.051961727
171	0x3caa6790	0.020801336
172	0x3d237752	0.039908715
173	0xbd346d1b	-0.044049364
174	0x3d25a02d	0.04043596
175	0x3c01f7b1	0.007932589
176	0xbb9c9a30	-0.004779123
177	0x3d7dd80d	0.06197362
178	0xbbf86d56	-0.0075813932
179	0x3d0f670f	0.035010394
180	0xbd623cf8	-0.055233926
181	0xbba0784a	-0.004897152
182	0x3d1f5a66	0.03890457
183	0xbd987eff	-0.074460976
184	0xbadc5fb7	-0.0016813193
185	0x3db60eab	0.088895164
186	0xbc97804a	-0.01849379
187	0x3d1f9345	0.038958807
188	0x3daf8878	0.08570951
189	0xba9d0833	-0.0011980593
190	0xbc554f8c	-0.013019454
191	0x3dccbca0	0.09996915
192	0x3d494153	0.049134564
193	0x3d46050a	0.04834465
194	0x3dce004e	0.10058652
195	0x3d8e1dab	0.069392525
196	0x3dc3d717	0.095625095
197	0x3c8abac7	0.016934766
198	0x3daa2ab8	0.08308929
199	0x3e212706	0.15737543
200	0x3dee7710	0.11643803
201	0x3cf71424	0.030160971
202	0x3cb18574	0.02167008
203	0x3ac5933a	0.0015073784
204	0x3cedb68c	0.02901771
205	0x3be8570d	0.0070904554
206	0x3d99a56d	0.075022556
207	0xbd58e18a	-0.052949466
208	0xbda06f03	-0.07833674
209	0xbe22f57b	-0.15913956
210	0xbe3167bf	-0.17324732
211	0xbe31b4db	-0.17354147
212	0xbe26fe12	-0.16307858
213	0xbddf4d27	-0.109033875
214	0xbdece271	-0.11566628
215	0xbd7b85e2	-0.061406977
216	0x3be8a97a	0.0071002813
217	0x3d5e2ef2	0.05424399
218	0x3e19bd2a	0.15013567
219	0xbc2ce30b	-0.010552178
220	0x3d87a27b	0.066227876
221	0x3dd05ada	0.101735786
222	0x3cef54ff	0.029215334
223	0x3db1b937	0.08677905
224	0x3de7ae11	0.113124974
225	0xbdf4c38f	-0.11951362
226	0xbe0d66c8	-0.13808739
227	0x3c79958a	0.015233407
228	0xbdbe5e9e	-0.092953905
229	0xbdf4c3ab	-0.11951383
230	0x3d89739f	0.06711506
231	0xbe328169	-0.17432179
232	0xbe24b362	-0.16084054
233	0x3b848d86	0.004045191
234	0xbe001e88	-0.12511647
235	0xbdde9233	-0.10867729
236	0xbdda648e	-0.106637105
237	0xbdbc444c	-0.09192714
238	0xbdffb9ac	-0.12486586
239	0xbe0be871	-0.13662888
240	0xbe185d1d	-0.1487927
241	0xbe16fc22	-0.14744619
242	0xbe0d2045	-0.13781841
243	0x3e60f50d	0.2196848
244	0x3e4b1e24	0.19835716
245	0x3d824ce0	0.06362319
246	0x3e3a71c5	0.18207462
247	0x3e5d84ef	0.21632741
248	0x3d119e58	0.0355514
249	0x3d677fa8	0.056518227
250	0x3da9cbda	0.08290835
251	0x3d60e4ab	0.054905575
252	0x3c89eef1	0.016837569
253	0x3ca4ae61	0.020102682
254	0x3d948567	0.07252007
255	0x3d788cd5	0.060681183

conv3.bias f4 [128]
0	0xb8437503	-4.66006e-05
1	0xb7ab9a69	-2.0456691e-05
2	0x38cc35f5	9.737528e-05
3	0x382eaecf	4.1647636e-05
4	0x38b6a102	8.708426e-05
5	0xb7e8d166	-2.7754064e-05
6	0xb84219c6	-4.6277208e-05
7	0xb78ad6a9	-1.655084e-05
8	0xb82314a4	-3.888145e-05
9	0xb84d1d94	-4.8903355e-05
10	0xb8ef012e	-0.00011396628
11	0x38fde2bb	0.00012106212
12	0xb808c5c5	-3.2609114e-05
13	0x381d4c9e	3.7503072e-05
14	0xb796c4c6	-1.7973023e-05
15	0xb827ac61	-3.9976443e-05
16	0x3720dc5c	9.58805e-06
17	0xb7836db7	-1.5667507e-05
18	0xb80e0f0d	-3.3869455e-05
19	0xb86611cc	-5.4852848e-05
20	0xb8a1a63a	-7.70804e-05
21	0xb87e6cc6	-6.0659622e-05
22	0x388851b1	6.5002016e-05
23	0x382acf63	4.0724302e-05
24	0xb95ee00e	-0.00021255037
25	0xb810ed77	-3.455343e-05
26	0x3809416f	3.2724285e-05
27	0x38906a96	6.886308e-05
28	0xb73cb854	-1.124859e-05
29	0xb70f4348	-8.539129e-06
30	0x38444c57	4.680114e-05
31	0xb7ca2b42	-2.410042e-05
32	0x382f000b	4.172329e-05
33	0xb87c483b	-6.014875e-05
34	0xb8515339	-4.990699e-05
35	0xb8777128	-5.8994774e-05
36	0x387fd9f6	6.099973e-05
37	0xb79e9664	-1.8905099e-05
38	0xb896189b	-7.1571405e-05
39	0x388958c0	6.5492e-05
40	0x37a4c2ce	1.9641036e-05
41	0x38908012	6.89031e-05
42	0xb8b52182	-8.636994e-05
43	0x379f63b0	1.9000698e-05
44	0xb7db3123	-2.6129715e-05
45	0x390f53aa	0.0001366871
46	0x3808c030	3.2603915e-05
47	0x39198c86	0.00014643566
48	0xb76f87bc	-1.4277113e-05
49	0xb960b208	-0.00021428626
50	0xb86fde60	-5.7189143e-05
51	0xb8fc65d1	-0.00012035261
52	0x381620fb	3.5793502e-05
53	0x37878edc	1.6159778e-05
54	0x39102293	0.0001374579
55	0xb8eda29a	-0.000113313276
56	0x38eaa842	0.0001118933
57	0xb8176ec5	-3.6104368e-05
58	0x38909c39	6.895554e-05
59	0xb916523b	-0.00014335748
60	0xb88e5c5e	-6.7882924e-05
61	0x3790f425	1.7279826e-05
62	0x38488288	4.7805283e-05
63	0x38c75901	9.505638e-05
64	0x389e5aaf	7.550918e-05
65	0x38586045	5.158807e-05
66	0xb8e2c482	-0.00010813122
67	0xb7a3eeb3	-1.9542267e-05
68	0x36eca43b	7.052467e-06
69	0x38f666fe	0.00011749378
70	0x38dcae88	0.000105229265
71	0xb889bfa1	-6.568363e-05
72	0xb881d381	-6.190595e-05
73	0x38a317a1	7.776847e-05
74	0xb896e34c	-7.194895e-05
75	0xb8167e43	-3.5880377e-05
76	0x391d5dd6	0.00015007643
77	0xb8a95a45	-8.075362e-05
78	0xb7a2a4f3	-1.9388715e-05
79	0x388feb4f	6.862601e-05
80	0xb9046a9b	-0.00012628215
81	0xb899c4df	-7.3322786e-05
82	0x37b930e0	2.2076478e-05
83	0x38f2f667	0.00011585355
84	0x37ad50e1	2.066087e-05
85	0x3895d6ad	7.14486e-05
86	0xb90b6656	-0.00013294196
87	0xb9016623	-0.00012340448
88	0x38a5dbfa	7.908787e-05
89	0x36c9ac3a	6.0103166e-06
90	0xb8bf3a33	-9.11843e-05
91	0xb8a14986	-7.690773e-05
92	0x3840ddf9	4.5983095e-05
93	0x38838ee0	6.273179e-05
94	0xb7045068	-7.886534e-06
95	0xb875edc8	-5.8634003e-05
96	0xb8f1e500	-0.0001153443
97	0xb7aba4eb	-2.0461584e-05
98	0x3853f962	5.0538576e-05
99	0x38196686	3.6573525e-05
100	0xb8e7c092	-0.000110508074
101	0xb7f0c0ee	-2.870007e-05
102	0xb870754b	-5.7329697e-05
103	0x3468ba55	2.1674471e-07
104	0xb885bfd5	-6.377666e-05
105	0xb6391eb0	-2.758501e-06
106	0xb880d308	-6.142823e-05
107	0x38ae8eed	8.3235886e-05
108	0xb8bfcb1f	-9.145424e-05
109	0xb89911ae	-7.2989016e-05
110	0x38eecb59	0.00011386601
111	0x38513527	4.9878985e-05
112	0xb8b70022	-8.726145e-05
113	0xb5fa0e2f	-1.863058e-06
114	0x3847502c	4.7519963e-05
115	0xb90f3a6d	-0.00013659308
116	0x3880e389	6.145897e-05
117	0xb89d9c68	-7.515476e-05
118	0xb8874d81	-6.451738e-05
119	0x3893773c	7.031715e-05
120	0x37c8cc85	2.3937095e-05
121	0xb85a29d1	-5.2014195e-05
122	0xb8fc2cc7	-0.00012024637
123	0xb8c15d90	-9.2203845e-05
124	0xb72ccd75	-1.0299836e-05
125	0xb74e9331	-1.23128275e-05
126	0x3828bc2c	4.022957e-05
127	0x386bb855	5.620004e-05

bn3.weight f4 [128]
0	0x3f9d9787	1.2311867
1	0x3fa0eaa8	1.2571611
2	0x3fa15aa7	1.260579
3	0x3fa125fb	1.2589716
4	0x3fa1959f	1.2623786
5	0x3f955fab	1.166982
6	0x3f8791e6	1.05914
7	0x3fab1fae	1.3369043
8	0x3f98e860	1.1945915
9	0x3fa3dc04	1.2801518
10	0x3fa7a099	1.3095886
11	0x3f9dc31e	1.232517
12	0x3f965794	1.1745477
13	0x3f9db738	1.2321539
14	0x3f9f4373	1.2442459
15	0x3f9b8abe	1.2151716
16	0x3f81e9e2	1.01495
17	0x3fa7953f	1.3092421
18	0x3fa14abd	1.2600933
19	0x3f9bad3b	1.2162241
20	0x3f984871	1.1897107
21	0x3f93c863	1.1545528
22	0x3fa27c0a	1.2694104
23	0x3f988930	1.1916866
24	0x3f9dcc4c	1.2327971
25	0x3fa5f830	1.2966366
26	0x3f857174	1.0425248
27	0x3fab61f2	1.3389266
28	0x3fa80f47	1.3129662
29	0x3f985111	1.189974
30	0x3fa2d2c8	1.2720575
31	0x3fabdabb	1.3426126
32	0x3fa823ec	1.3135962
33	0x3f95dc55	1.1707865
34	0x3fa2ad1c	1.2709079
35	0x3fa38474	1.2774796
36	0x3f9ffdaf	1.2499293
37	0x3f9d0f8e	1.2270372
38	0x3f881f11	1.0634481
39	0x3f8fa61a	1.1222565
40	0x3fa1342f	1.259405
41	0x3f83f6ca	1.0309689
42	0x3fa3cba9	1.2796527
43	0x3f95b7a0	1.1696663
44	0x3f9ee4b4	1.2413545
45	0x3f9ca076	1.2236469
46	0x3fa291d2	1.2700751
47	0x3f8cf52c	1.101232
48	0x3fa34bc8	1.2757502
49	0x3fab0a45	1.3362509
50	0x3f9b2d36	1.2123172
51	0x3f9c4a66	1.2210205
52	0x3fab586d	1.338636
53	0x3fa805ed	1.3126808
54	0x3f98b206	1.1929328
55	0x3f8ec631	1.1154233
56	0x3f962f69	1.1733218
57	0x3f997b60	1.1990776
58	0x3fa06699	1.253131
59	0x3fa3eb02	1.2806094
60	0x3fa4a3f6	1.2862537
61	0x3f90cf2c	1.1313224
62	0x3f98c6a6	1.1935623
63	0x3f9f7617	1.2457913
64	0x3fa4adaa	1.2865498
65	0x3fa21fc3	1.2665943
66	0x3f9752bd	1.1822125
67	0x3f94b963	1.1619076
68	0x3f9ca27e	1.2237089
69	0x3fb1c80f	1.3889178
70	0x3f98e381	1.1944429
71	0x3f97a9f5	1.1848742
72	0x3f957e88	1.1679239
73	0x3f9b6c51	1.214243
74	0x3f919c26	1.1375778
75	0x3f95bf63	1.1699032
76	0x3fa448c4	1.2834706
77	0x3f8ea1c8	1.1143122
78	0x3f9bc56e	1.2169626
79	0x3f9fbe38	1.2479925
80	0x3f8563d9	1.0421096
81	0x3fa99290	1.3247852
82	0x3fa1ae58	1.263133
83	0x3f9956a7	1.1979569
84	0x3fa174dc	1.2613788
85	0x3f97e111	1.186556
86	0x3fa4e736	1.288306
87	0x3f8a83ec	1.0821509
88	0x3fa64ca3	1.2992138
89	0x3f9eb430	1.2398739
90	0x3f9cc0cb	1.2246336
91	0x3fa2bfd7	1.2714795
92	0x3f9cc250	1.22468
93	0x3f9d6fbb	1.2299722
94	0x3f9ebff9	1.2402335
95	0x3fa51c25	1.2899214
96	0x3f9da3f7	1.2315663
97	0x3f71bfd3	0.94433326
98	0x3f97b828	1.1853075
99	0x3f96cd36	1.1781375
100	0x3fa8fe72	1.320265
101	0x3fa7e279	1.3115989
102	0x3f9dddd8	1.2333326
103	0x3f944bec	1.158567
104	0x3fa587d0	1.2932072
105	0x3f8d23f3	1.1026596
106	0x3f8ced1b	1.1009859
107	0x3f9d1bce	1.227411
108	0x3fa8c8ab	1.3186239
109	0x3fa0aec2	1.2553332
110	0x3f9a1147	1.2036523
111	0x3fa01ad4	1.2508187
112	0x3f9d8db1	1.2308866
113	0x3fa66101	1.2998353
114	0x3f8aaba9	1.0833637
115	0x3f99d69f	1.2018622
116	0x3fa0a62c	1.2550712
117	0x3f95068c	1.1642623
118	0x3f8e6774	1.1125321
119	0x3fa61684	1.2975621
120	0x3fb52271	1.4151136
121	0x3f995699	1.1979553
122	0x3f927c23	1.1444134
123	0x3fa6e2cf	1.3037966
124	0x3f863d12	1.0487387
125	0x3f9e1663	1.2350582
126	0x3f877680	1.0583038
127	0x3fa4a0d5	1.2861582

bn3.bias f4 [128]
0	0xbe67f718	-0.22652853
1	0xbed9aedc	-0.4251622
2	0xbeb48098	-0.3525436
3	0xbe87df55	-0.26537576
4	0xbec99a58	-0.39375567
5	0xbe712a5c	-0.23551315
6	0xbe402ef2	-0.18767908
7	0xbe7eb5c7	-0.2487403
8	0xbe9c8ad5	-0.3057467
9	0xbebcb989	-0.36860302
10	0xbeb61407	-0.35562155
11	0xbe4bad29	-0.19890274
12	0xbdebb1a6	-0.11508493
13	0xbe77d8e0	-0.24203825
14	0xbec1a75a	-0.37822992
15	0xbe53af4e	-0.20672342
16	0xbdc352be	-0.09537266
17	0xbeb5f8c6	-0.35541362
18	0xbed91c2b	-0.42404303
19	0xbe4cc36a	-0.1999642
20	0xbea93496	-0.33047932
21	0xbe3b8d34	-0.18315583
22	0xbebecbba	-0.37264806
23	0xbe6165fb	-0.22011559
24	0xbe7405bb	-0.23830311
25	0xbea4a443	-0.32156572
26	0xbd23232f	-0.039828476
27	0xbe89cf1c	-0.26915824
28	0xbeaac9ed	-0.33357182
29	0xbe21a0d7	-0.15784012
30	0xbec2966a	-0.38005382
31	0xbe93a6bf	-0.28838155
32	0xbeb4686d	-0.3523592
33	0xbe99de3a	-0.30052358
34	0xbe397051	-0.18109252
35	0xbe958d5f	-0.2920942
36	0xbe35baad	-0.17746992
37	0xbe9d0d36	-0.30674142
38	0xbe59c9c3	-0.21268372
39	0xbe9930ee	-0.29920143
40	0xbe91164c	-0.28337324
41	0xbeabe569	-0.33573464
42	0xbeaa1929	-0.3322232
43	0xbdac64a8	-0.08417636
44	0xbeb1216b	-0.34595808
45	0xbeb2f474	-0.34952128
46	0xbe1a3fe1	-0.1506343
47	0xbe38739c	-0.18012851
48	0xbe65cfa2	-0.22442487
49	0xbe8f6361	-0.28005508
50	0xbe467124	-0.19379097
51	0xbeacb78e	-0.3373379
52	0xbe971066	-0.295047
53	0xbed404f9	-0.41410044
54	0xbe5384a8	-0.20656073
55	0xbe843b27	-0.2582638
56	0xbea28ad3	-0.3174654
57	0xbe4bb1b2	-0.19892004
58	0xbdc54c89	-0.096337385
59	0xbe96aaf0	-0.2942729
60	0xbe8f00b4	-0.27930224
61	0xbe8da7f5	-0.27667204
62	0xbe874016	-0.2641608
63	0xbe27e401	-0.1639557
64	0xbeb54ec2	-0.3541165
65	0xbe884e95	-0.26622453
66	0xbe75d7d1	-0.24008109
67	0xbe91f9de	-0.28510946
68	0xbea7abbe	-0.32748216
69	0xbea33695	-0.3187758
70	0xbe6b0292	-0.22950199
71	0xbed40d7b	-0.41416535
72	0xbe6986f3	-0.22805385
73	0xbecc2f69	-0.3987992
74	0xbe8e4ee2	-0.27794558
75	0xbe886fff	-0.26647946
76	0xbeaa0f45	-0.33214775
77	0xbe272f6c	-0.16326684
78	0xbe93043e	-0.28714174
79	0xbe476b6f	-0.19474576
80	0xbdee19e4	-0.11626032
81	0xbe365177	-0.17804514
82	0xbe950235	-0.29103246
83	0xbe93a687	-0.28837988
84	0xbea96557	-0.3308513
85	0xbea79e5f	-0.32738015
86	0xbe83df54	-0.25756323
87	0xbd80d7d3	-0.06291165
88	0xbe901523	-0.28141126
89	0xbeaba321	-0.33522895
90	0xbec7b8d4	-0.390082
91	0xbe95e548	-0.2927649
92	0xbecd51ee	-0.4010157
93	0xbe925bc8	-0.2858565
94	0xbeb825c4	-0.35966313
95	0xbea4329c	-0.32069862
96	0xbea9b380	-0.3314476
97	0xbdda961f	-0.106731646
98	0xbe978455	-0.2959315
99	0xbdc28aa2	-0.09499098
100	0xbe5dd1f2	-0.21662119
101	0xbebcc677	-0.36870167
102	0xbea3a51f	-0.31961915
103	0xbe2b19e3	-0.16709094
104	0xbe948123	-0.29004773
105	0xbe689fa3	-0.22717147
106	0xbe6f6acb	-0.23380582
107	0xbe8d8b53	-0.27645358
108	0xbe966d2b	-0.29380164
109	0xbe9771bc	-0.2957896
110	0xbe8a4c87	-0.2701151
111	0xbe8dff3d	-0.27733794
112	0xbe7a3f29	-0.24438156
113	0xbe61f1d1	-0.22064902
114	0xbe53da9e	-0.20688865
115	0xbe82a57a	-0.25516874
116	0xbea4f93d	-0.32221404
117	0xbe9a1019	-0.30090407
118	0xbe7c9d32	-0.2466934
119	0xbe9559c8	-0.2917006
120	0xbe73fdbd	-0.23827262
121	0xbe9ef389	-0.31045178
122	0xbea89724	-0.3292781
123	0xbe913b65	-0.28365627
124	0xbe0112ca	-0.12604824
125	0xbec04beb	-0.3755792
126	0xbed226a3	-0.41045102
127	0xbe8cb016	-0.27478093

bn3.running_mean f4 [128]
0	0xc00ec14b	-2.2305477
1	0xbf79c49a	-0.97565615
2	0xbf942dcd	-1.1576477
3	0xbf90e676	-1.1320331
4	0xbf782a95	-0.96939975
5	0xbeb8d99b	-0.3610352
6	0xbfb07339	-1.3785163
7	0x3e5cae57	0.2155088
8	0xbf6eb2e8	-0.9324174
9	0xbf9f7e5b	-1.2460436
10	0xbf53b3e0	-0.8269634
11	0xbf886e57	-1.0658673
12	0xbeccbd6e	-0.39988273
13	0xc01c1233	-2.4386108
14	0x3db92ff8	0.090423524
15	0xbf94fad9	-1.1639053
16	0xc006d821	-2.1069415
17	0xbdbb2773	-0.09138384
18	0xbf15b650	-0.5848131
19	0xbfc31b07	-1.5242623
20	0x3cc071a1	0.023491682
21	0x3f39b3b3	0.72539824
22	0xbf75a731	-0.9595824
23	0x3e7817ee	0.24227878
24	0xbded4a86	-0.1158648
25	0xbe01998d	-0.12656231
26	0xbf817db5	-1.0116488
27	0xbdf9773a	-0.12180944
28	0xbf1092c8	-0.5647397
29	0xbf890f77	-1.0707844
30	0xbf3d9483	-0.74054736
31	0x3ebb6f5b	0.36608395
32	0xbf8d73c9	-1.105096
33	0xbf9fca5d	-1.2483631
34	0x3eb20134	0.34766543
35	0x3f44179d	0.7659853
36	0x3f698c88	0.9123006
37	0xbf36cdab	-0.71407574
38	0xbf1d79d1	-0.61514
39	0xbfbae1d2	-1.4600165
40	0xbf84c18f	-1.0371569
41	0xbdd88e8a	-0.10574062
42	0x3ed59759	0.41717032
43	0xbeb201a8	-0.3476689
44	0xbebfaab2	-0.37434918
45	0xbdc8d5ca	-0.09806402
46	0xbf6c62ff	-0.92338556
47	0xbfa2dbb5	-1.2723299
48	0xbd1c2aa6	-0.03812661
49	0x3eeda4ac	0.46414697
50	0xbf794523	-0.9737112
51	0x3e8f1a19	0.27949598
52	0x3e7d5ec8	0.24743187
53	0xbe836704	-0.25664532
54	0xbf750e0d	-0.95724565
55	0xbf485bc7	-0.7826504
56	0xbdf2c98e	-0.1185485
57	0xc0225958	-2.536703
58	0xbd8db744	-0.06919721
59	0xbee51fa3	-0.447507
60	0xbe321445	-0.17390545
61	0xbdfcc1dd	-0.12341664
62	0xbf3f2895	-0.746713
63	0x3fc17a84	1.5115514
64	0xbf8c9d1d	-1.0985447
65	0xbde908ce	-0.113786325
66	0xbeafd8ae	-0.34345
67	0x3dd3df85	0.10345367
68	0x3e0e2501	0.13881303
69	0x3ead7707	0.33879873
70	0xbf873488	-1.0562906
71	0xbf8398a7	-1.0280961
72	0xbf45f83c	-0.773319
73	0x3f266b18	0.6500716
74	0xbeb8c363	-0.36086568
75	0x3e56c924	0.20975167
76	0xbf3a87c0	-0.7286339
77	0xbfb7c81e	-1.4357946
78	0xbf1bd305	-0.60868865
79	0xbfadfd3f	-1.359291
80	0xbe687142	-0.22699454
81	0xbf404b03	-0.7511446
82	0xbec9cf46	-0.3941595
83	0xbe8e1102	-0.2774735
84	0x3fc88287	1.5664834
85	0x3e8ce7c0	0.2752056
86	0x3f7f2e6f	0.9968023
87	0x3e7dfe22	0.24803975
88	0xbfde9599	-1.7389404
89	0xbc0395a6	-0.008031284
90	0xbf4f3bea	-0.80950797
91	0x3f5994e0	0.8499279
92	0x3f74970c	0.9554298
93	0xbd9237df	-0.07139563
94	0xbf175294	-0.5911038
95	0xbec9304b	-0.39294657
96	0x3ee66627	0.4499981
97	0x3f125d87	0.5717396
98	0xbc84d210	-0.016213447
99	0x3ffaa65e	1.9582021
100	0x3ea12c7c	0.3147925
101	0xbf086f82	-0.5329515
102	0xbdd4a76c	-0.10383496
103	0x3f4475d4	0.7674229
104	0xbf96107d	-1.1723782
105	0x3e6702e7	0.22559701
106	0xbecc8109	-0.39942196
107	0xbe61448d	-0.21998806
108	0x3e571234	0.21003038
109	0xbfa77791	-1.3083364
110	0xbfaea1da	-1.3643143
111	0xbe52e8c0	-0.205966
112	0xbe083ae3	-0.13303714
113	0x3dffbee8	0.12487584
114	0x3e360f57	0.17779289
115	0xbf0f8c42	-0.5607339
116	0x3fbf9b54	1.4969277
117	0xbfb3ffc7	-1.4062432
118	0xbf12b22b	-0.5730311
119	0xbf687572	-0.9080421
120	0x3eb9a8e9	0.3626168
121	0x3ee68848	0.4502585
122	0xbe9f8199	-0.31153563
123	0x3fa59fba	1.293937
124	0xbedabcb5	-0.42722097
125	0xbd2db6df	-0.042410728
126	0xbd9573ef	-0.07297503
127	0xbf1a2d68	-0.60225534

bn3.running_var f4 [128]
0	0x3f978b14	1.1839318
1	0x3f8ab8fa	1.08377
2	0x3f950c0f	1.1644305
3	0x3f9e206c	1.2353644
4	0x3f42cab4	0.7609055
5	0x3f7f96e3	0.9983961
6	0x3f42233e	0.75835025
7	0x3f72237a	0.9458538
8	0x3f4cd9bc	0.80019736
9	0x3f735cf6	0.9506372
10	0x3f7d4520	0.989336
11	0x3f25b45a	0.6472832
12	0x3f7d55de	0.9895915
13	0x3f8ce83e	1.1008375
14	0x3f708722	0.93956196
15	0x3fa05379	1.2525474
16	0x3f8c2dc2	1.0951464
17	0x3f8d546d	1.104139
18	0x3f668949	0.9005323
19	0x3f7c0560	0.984457
20	0x3f4a7d6f	0.79097646
21	0x3f48ee70	0.78488827
22	0x3f7aed93	0.9801876
23	0x3f6e5e2e	0.93112457
24	0x3f2a280b	0.6646735
25	0x3f85ff4c	1.0468535
26	0x3f9ab416	1.2086208
27	0x3f47c061	0.7802792
28	0x3f869c41	1.0516435
29	0x3f40133e	0.7502936
30	0x3f893415	1.0719019
31	0x3f4df276	0.8044809
32	0x3f9536e6	1.1657379
33	0x3f5e21a4	0.8677008
34	0x3f86f331	1.0542966
35	0x3f75fa02	0.96084607
36	0x3f78007f	0.96875757
37	0x3f4df26e	0.80448043
38	0x3f611c3c	0.8793371
39	0x3f8938ef	1.07205
40	0x3f5b557e	0.85677326
41	0x3f3ea24f	0.74466413
42	0x3f2a9e18	0.6664748
43	0x3fa01a70	1.2508068
44	0x3f53ab94	0.8268368
45	0x3f2d7944	0.6776316
46	0x3f68f948	0.91005373
47	0x3f3785eb	0.7168872
48	0x3f7d7ba3	0.9901678
49	0x3f755f63	0.95848674
50	0x3f91a92e	1.1379755
51	0x3f843ba1	1.0330697
52	0x3f5764f8	0.8413844
53	0x3f2ec730	0.68272686
54	0x3f48b561	0.7840176
55	0x3f602375	0.87554103
56	0x3f4123e3	0.75445384
57	0x3f94f5c8	1.1637506
58	0x3f20ecad	0.6286114
59	0x3f3cee12	0.73800766
60	0x3f754644	0.9581034
61	0x3f77e810	0.96838474
62	0x3f5568d8	0.83363104
63	0x3f8f3f4c	1.1191192
64	0x3f9e19d4	1.2351632
65	0x3f515e11	0.8178416
66	0x3f5e654c	0.86873317
67	0x3f8287ab	1.0197653
68	0x3f46b0e2	0.7761365
69	0x3f81d3bc	1.0142741
70	0x3f4bc276	0.795936
71	0x3f4ad28a	0.7922751
72	0x3f4682db	0.7754342
73	0x3f53af66	0.8268951
74	0x3f4bbd78	0.7958598
75	0x3f79ebfa	0.97625697
76	0x3f5b5db0	0.8568983
77	0x3f9df776	1.2341144
78	0x3f812bde	1.0091512
79	0x3f5c9a6d	0.86173135
80	0x3f396c1b	0.7243058
81	0x3f483297	0.78202194
82	0x3f42e6a6	0.7613319
83	0x3f21cd5b	0.6320397
84	0x3f81a8a0	1.0129585
85	0x3f80e5c2	1.0070117
86	0x3f2a8c8b	0.666207
87	0x3f811b5c	1.0086474
88	0x3fa549dc	1.2913165
89	0x3f62a541	0.8853341
90	0x3f6e8db7	0.9318499
91	0x3f8f9e95	1.122027
92	0x3f39a1e2	0.7251264
93	0x3f853dc4	1.0409474
94	0x3f554ec3	0.83323306
95	0x3f8b0d57	1.0863446
96	0x3f55a86e	0.8346013
97	0x3f81cd58	1.0140791
98	0x3f4baf85	0.79564697
99	0x3f93b0ed	1.1538368
100	0x3f7580e9	0.95899826
101	0x3f9459ce	1.1589906
102	0x3f440bf6	0.7658075
103	0x3fbd119a	1.4770997
104	0x3f946cf7	1.1595753
105	0x3f37c197	0.7177977
106	0x3f67c20d	0.90530473
107	0x3f745f04	0.9545748
108	0x3f683ef6	0.9072107
109	0x3f9bdbcc	1.2176452
110	0x3f23cf87	0.63988537
111	0x3f361951	0.7113238
112	0x3f43f084	0.7653887
113	0x3f19d88f	0.6009607
114	0x3f7624a9	0.9614969
115	0x3f694b90	0.91130924
116	0x3f8f23fa	1.1182854
117	0x3f8bbf48	1.091775
118	0x3f3f7aae	0.7479657
119	0x3fad1039	1.3520576
120	0x3f67a3ce	0.9048432
121	0x3f247126	0.6423515
122	0x3f3bb531	0.7332335
123	0x3f69041d	0.910219
124	0x3f9927cb	1.1965269
125	0x3f375c12	0.71624863
126	0x3f13c04e	0.5771531
127	0x3f50f5db	0.81625146
